<?xml version="1.0" ?>
<net name="saved_model" version="10">
	<layers>
		<layer id="0" name="input_1" type="Parameter" version="opset1">
			<data element_type="f32" shape="1,3,299,299"/>
			<output>
				<port id="0" precision="FP32">
					<dim>1</dim>
					<dim>3</dim>
					<dim>299</dim>
					<dim>299</dim>
				</port>
			</output>
		</layer>
		<layer id="1" name="StatefulPartitionedCall/functional_1/batch_normalization/FusedBatchNormV3/mean/Fused_Mul_4663346635_const" type="Const" version="opset1">
			<data element_type="f32" offset="0" shape="32,3,3,3" size="3456"/>
			<output>
				<port id="1" precision="FP32">
					<dim>32</dim>
					<dim>3</dim>
					<dim>3</dim>
					<dim>3</dim>
				</port>
			</output>
		</layer>
		<layer id="2" name="StatefulPartitionedCall/functional_1/conv2d/Conv2D" type="Convolution" version="opset1">
			<data auto_pad="valid" dilations="1,1" output_padding="0,0" pads_begin="0,0" pads_end="0,0" strides="2,2"/>
			<input>
				<port id="0">
					<dim>1</dim>
					<dim>3</dim>
					<dim>299</dim>
					<dim>299</dim>
				</port>
				<port id="1">
					<dim>32</dim>
					<dim>3</dim>
					<dim>3</dim>
					<dim>3</dim>
				</port>
			</input>
			<output>
				<port id="2" precision="FP32">
					<dim>1</dim>
					<dim>32</dim>
					<dim>149</dim>
					<dim>149</dim>
				</port>
			</output>
		</layer>
		<layer id="3" name="data_add_42729/copy_const" type="Const" version="opset1">
			<data element_type="f32" offset="3456" shape="1,32,1,1" size="128"/>
			<output>
				<port id="1" precision="FP32">
					<dim>1</dim>
					<dim>32</dim>
					<dim>1</dim>
					<dim>1</dim>
				</port>
			</output>
		</layer>
		<layer id="4" name="StatefulPartitionedCall/functional_1/batch_normalization/FusedBatchNormV3/variance/Fused_Add_" type="Add" version="opset1">
			<input>
				<port id="0">
					<dim>1</dim>
					<dim>32</dim>
					<dim>149</dim>
					<dim>149</dim>
				</port>
				<port id="1">
					<dim>1</dim>
					<dim>32</dim>
					<dim>1</dim>
					<dim>1</dim>
				</port>
			</input>
			<output>
				<port id="2" precision="FP32">
					<dim>1</dim>
					<dim>32</dim>
					<dim>149</dim>
					<dim>149</dim>
				</port>
			</output>
		</layer>
		<layer id="5" name="StatefulPartitionedCall/functional_1/activation/Relu" type="ReLU" version="opset1">
			<input>
				<port id="0">
					<dim>1</dim>
					<dim>32</dim>
					<dim>149</dim>
					<dim>149</dim>
				</port>
			</input>
			<output>
				<port id="1" precision="FP32">
					<dim>1</dim>
					<dim>32</dim>
					<dim>149</dim>
					<dim>149</dim>
				</port>
			</output>
		</layer>
		<layer id="6" name="StatefulPartitionedCall/functional_1/batch_normalization_1/FusedBatchNormV3/mean/Fused_Mul_4663746639_const" type="Const" version="opset1">
			<data element_type="f32" offset="3584" shape="32,32,3,3" size="36864"/>
			<output>
				<port id="1" precision="FP32">
					<dim>32</dim>
					<dim>32</dim>
					<dim>3</dim>
					<dim>3</dim>
				</port>
			</output>
		</layer>
		<layer id="7" name="StatefulPartitionedCall/functional_1/conv2d_1/Conv2D" type="Convolution" version="opset1">
			<data auto_pad="valid" dilations="1,1" output_padding="0,0" pads_begin="0,0" pads_end="0,0" strides="1,1"/>
			<input>
				<port id="0">
					<dim>1</dim>
					<dim>32</dim>
					<dim>149</dim>
					<dim>149</dim>
				</port>
				<port id="1">
					<dim>32</dim>
					<dim>32</dim>
					<dim>3</dim>
					<dim>3</dim>
				</port>
			</input>
			<output>
				<port id="2" precision="FP32">
					<dim>1</dim>
					<dim>32</dim>
					<dim>147</dim>
					<dim>147</dim>
				</port>
			</output>
		</layer>
		<layer id="8" name="data_add_4273242737/copy_const" type="Const" version="opset1">
			<data element_type="f32" offset="40448" shape="1,32,1,1" size="128"/>
			<output>
				<port id="1" precision="FP32">
					<dim>1</dim>
					<dim>32</dim>
					<dim>1</dim>
					<dim>1</dim>
				</port>
			</output>
		</layer>
		<layer id="9" name="StatefulPartitionedCall/functional_1/batch_normalization_1/FusedBatchNormV3/variance/Fused_Add_" type="Add" version="opset1">
			<input>
				<port id="0">
					<dim>1</dim>
					<dim>32</dim>
					<dim>147</dim>
					<dim>147</dim>
				</port>
				<port id="1">
					<dim>1</dim>
					<dim>32</dim>
					<dim>1</dim>
					<dim>1</dim>
				</port>
			</input>
			<output>
				<port id="2" precision="FP32">
					<dim>1</dim>
					<dim>32</dim>
					<dim>147</dim>
					<dim>147</dim>
				</port>
			</output>
		</layer>
		<layer id="10" name="StatefulPartitionedCall/functional_1/activation_1/Relu" type="ReLU" version="opset1">
			<input>
				<port id="0">
					<dim>1</dim>
					<dim>32</dim>
					<dim>147</dim>
					<dim>147</dim>
				</port>
			</input>
			<output>
				<port id="1" precision="FP32">
					<dim>1</dim>
					<dim>32</dim>
					<dim>147</dim>
					<dim>147</dim>
				</port>
			</output>
		</layer>
		<layer id="11" name="StatefulPartitionedCall/functional_1/batch_normalization_2/FusedBatchNormV3/mean/Fused_Mul_4664146643_const" type="Const" version="opset1">
			<data element_type="f32" offset="40576" shape="64,32,3,3" size="73728"/>
			<output>
				<port id="1" precision="FP32">
					<dim>64</dim>
					<dim>32</dim>
					<dim>3</dim>
					<dim>3</dim>
				</port>
			</output>
		</layer>
		<layer id="12" name="StatefulPartitionedCall/functional_1/conv2d_2/Conv2D" type="Convolution" version="opset1">
			<data auto_pad="same_upper" dilations="1,1" output_padding="0,0" pads_begin="0,0" pads_end="0,0" strides="1,1"/>
			<input>
				<port id="0">
					<dim>1</dim>
					<dim>32</dim>
					<dim>147</dim>
					<dim>147</dim>
				</port>
				<port id="1">
					<dim>64</dim>
					<dim>32</dim>
					<dim>3</dim>
					<dim>3</dim>
				</port>
			</input>
			<output>
				<port id="2" precision="FP32">
					<dim>1</dim>
					<dim>64</dim>
					<dim>147</dim>
					<dim>147</dim>
				</port>
			</output>
		</layer>
		<layer id="13" name="data_add_4274042745/copy_const" type="Const" version="opset1">
			<data element_type="f32" offset="114304" shape="1,64,1,1" size="256"/>
			<output>
				<port id="1" precision="FP32">
					<dim>1</dim>
					<dim>64</dim>
					<dim>1</dim>
					<dim>1</dim>
				</port>
			</output>
		</layer>
		<layer id="14" name="StatefulPartitionedCall/functional_1/batch_normalization_2/FusedBatchNormV3/variance/Fused_Add_" type="Add" version="opset1">
			<input>
				<port id="0">
					<dim>1</dim>
					<dim>64</dim>
					<dim>147</dim>
					<dim>147</dim>
				</port>
				<port id="1">
					<dim>1</dim>
					<dim>64</dim>
					<dim>1</dim>
					<dim>1</dim>
				</port>
			</input>
			<output>
				<port id="2" precision="FP32">
					<dim>1</dim>
					<dim>64</dim>
					<dim>147</dim>
					<dim>147</dim>
				</port>
			</output>
		</layer>
		<layer id="15" name="StatefulPartitionedCall/functional_1/activation_2/Relu" type="ReLU" version="opset1">
			<input>
				<port id="0">
					<dim>1</dim>
					<dim>64</dim>
					<dim>147</dim>
					<dim>147</dim>
				</port>
			</input>
			<output>
				<port id="1" precision="FP32">
					<dim>1</dim>
					<dim>64</dim>
					<dim>147</dim>
					<dim>147</dim>
				</port>
			</output>
		</layer>
		<layer id="16" name="StatefulPartitionedCall/functional_1/max_pooling2d/MaxPool" type="MaxPool" version="opset1">
			<data auto_pad="valid" kernel="3,3" pads_begin="0,0" pads_end="0,0" strides="2,2"/>
			<input>
				<port id="0">
					<dim>1</dim>
					<dim>64</dim>
					<dim>147</dim>
					<dim>147</dim>
				</port>
			</input>
			<output>
				<port id="1" precision="FP32">
					<dim>1</dim>
					<dim>64</dim>
					<dim>73</dim>
					<dim>73</dim>
				</port>
			</output>
		</layer>
		<layer id="17" name="StatefulPartitionedCall/functional_1/batch_normalization_3/FusedBatchNormV3/mean/Fused_Mul_4664546647_const" type="Const" version="opset1">
			<data element_type="f32" offset="114560" shape="80,64,1,1" size="20480"/>
			<output>
				<port id="1" precision="FP32">
					<dim>80</dim>
					<dim>64</dim>
					<dim>1</dim>
					<dim>1</dim>
				</port>
			</output>
		</layer>
		<layer id="18" name="StatefulPartitionedCall/functional_1/conv2d_3/Conv2D" type="Convolution" version="opset1">
			<data auto_pad="valid" dilations="1,1" output_padding="0,0" pads_begin="0,0" pads_end="0,0" strides="1,1"/>
			<input>
				<port id="0">
					<dim>1</dim>
					<dim>64</dim>
					<dim>73</dim>
					<dim>73</dim>
				</port>
				<port id="1">
					<dim>80</dim>
					<dim>64</dim>
					<dim>1</dim>
					<dim>1</dim>
				</port>
			</input>
			<output>
				<port id="2" precision="FP32">
					<dim>1</dim>
					<dim>80</dim>
					<dim>73</dim>
					<dim>73</dim>
				</port>
			</output>
		</layer>
		<layer id="19" name="data_add_4274842753/copy_const" type="Const" version="opset1">
			<data element_type="f32" offset="135040" shape="1,80,1,1" size="320"/>
			<output>
				<port id="1" precision="FP32">
					<dim>1</dim>
					<dim>80</dim>
					<dim>1</dim>
					<dim>1</dim>
				</port>
			</output>
		</layer>
		<layer id="20" name="StatefulPartitionedCall/functional_1/batch_normalization_3/FusedBatchNormV3/variance/Fused_Add_" type="Add" version="opset1">
			<input>
				<port id="0">
					<dim>1</dim>
					<dim>80</dim>
					<dim>73</dim>
					<dim>73</dim>
				</port>
				<port id="1">
					<dim>1</dim>
					<dim>80</dim>
					<dim>1</dim>
					<dim>1</dim>
				</port>
			</input>
			<output>
				<port id="2" precision="FP32">
					<dim>1</dim>
					<dim>80</dim>
					<dim>73</dim>
					<dim>73</dim>
				</port>
			</output>
		</layer>
		<layer id="21" name="StatefulPartitionedCall/functional_1/activation_3/Relu" type="ReLU" version="opset1">
			<input>
				<port id="0">
					<dim>1</dim>
					<dim>80</dim>
					<dim>73</dim>
					<dim>73</dim>
				</port>
			</input>
			<output>
				<port id="1" precision="FP32">
					<dim>1</dim>
					<dim>80</dim>
					<dim>73</dim>
					<dim>73</dim>
				</port>
			</output>
		</layer>
		<layer id="22" name="StatefulPartitionedCall/functional_1/batch_normalization_4/FusedBatchNormV3/mean/Fused_Mul_4664946651_const" type="Const" version="opset1">
			<data element_type="f32" offset="135360" shape="192,80,3,3" size="552960"/>
			<output>
				<port id="1" precision="FP32">
					<dim>192</dim>
					<dim>80</dim>
					<dim>3</dim>
					<dim>3</dim>
				</port>
			</output>
		</layer>
		<layer id="23" name="StatefulPartitionedCall/functional_1/conv2d_4/Conv2D" type="Convolution" version="opset1">
			<data auto_pad="valid" dilations="1,1" output_padding="0,0" pads_begin="0,0" pads_end="0,0" strides="1,1"/>
			<input>
				<port id="0">
					<dim>1</dim>
					<dim>80</dim>
					<dim>73</dim>
					<dim>73</dim>
				</port>
				<port id="1">
					<dim>192</dim>
					<dim>80</dim>
					<dim>3</dim>
					<dim>3</dim>
				</port>
			</input>
			<output>
				<port id="2" precision="FP32">
					<dim>1</dim>
					<dim>192</dim>
					<dim>71</dim>
					<dim>71</dim>
				</port>
			</output>
		</layer>
		<layer id="24" name="data_add_4275642761/copy_const" type="Const" version="opset1">
			<data element_type="f32" offset="688320" shape="1,192,1,1" size="768"/>
			<output>
				<port id="1" precision="FP32">
					<dim>1</dim>
					<dim>192</dim>
					<dim>1</dim>
					<dim>1</dim>
				</port>
			</output>
		</layer>
		<layer id="25" name="StatefulPartitionedCall/functional_1/batch_normalization_4/FusedBatchNormV3/variance/Fused_Add_" type="Add" version="opset1">
			<input>
				<port id="0">
					<dim>1</dim>
					<dim>192</dim>
					<dim>71</dim>
					<dim>71</dim>
				</port>
				<port id="1">
					<dim>1</dim>
					<dim>192</dim>
					<dim>1</dim>
					<dim>1</dim>
				</port>
			</input>
			<output>
				<port id="2" precision="FP32">
					<dim>1</dim>
					<dim>192</dim>
					<dim>71</dim>
					<dim>71</dim>
				</port>
			</output>
		</layer>
		<layer id="26" name="StatefulPartitionedCall/functional_1/activation_4/Relu" type="ReLU" version="opset1">
			<input>
				<port id="0">
					<dim>1</dim>
					<dim>192</dim>
					<dim>71</dim>
					<dim>71</dim>
				</port>
			</input>
			<output>
				<port id="1" precision="FP32">
					<dim>1</dim>
					<dim>192</dim>
					<dim>71</dim>
					<dim>71</dim>
				</port>
			</output>
		</layer>
		<layer id="27" name="StatefulPartitionedCall/functional_1/max_pooling2d_1/MaxPool" type="MaxPool" version="opset1">
			<data auto_pad="valid" kernel="3,3" pads_begin="0,0" pads_end="0,0" strides="2,2"/>
			<input>
				<port id="0">
					<dim>1</dim>
					<dim>192</dim>
					<dim>71</dim>
					<dim>71</dim>
				</port>
			</input>
			<output>
				<port id="1" precision="FP32">
					<dim>1</dim>
					<dim>192</dim>
					<dim>35</dim>
					<dim>35</dim>
				</port>
			</output>
		</layer>
		<layer id="28" name="StatefulPartitionedCall/functional_1/batch_normalization_5/FusedBatchNormV3/mean/Fused_Mul_4667746679_const" type="Const" version="opset1">
			<data element_type="f32" offset="689088" shape="96,192,1,1" size="73728"/>
			<output>
				<port id="1" precision="FP32">
					<dim>96</dim>
					<dim>192</dim>
					<dim>1</dim>
					<dim>1</dim>
				</port>
			</output>
		</layer>
		<layer id="29" name="StatefulPartitionedCall/functional_1/conv2d_5/Conv2D" type="Convolution" version="opset1">
			<data auto_pad="same_upper" dilations="1,1" output_padding="0,0" pads_begin="0,0" pads_end="0,0" strides="1,1"/>
			<input>
				<port id="0">
					<dim>1</dim>
					<dim>192</dim>
					<dim>35</dim>
					<dim>35</dim>
				</port>
				<port id="1">
					<dim>96</dim>
					<dim>192</dim>
					<dim>1</dim>
					<dim>1</dim>
				</port>
			</input>
			<output>
				<port id="2" precision="FP32">
					<dim>1</dim>
					<dim>96</dim>
					<dim>35</dim>
					<dim>35</dim>
				</port>
			</output>
		</layer>
		<layer id="30" name="data_add_4281242817/copy_const" type="Const" version="opset1">
			<data element_type="f32" offset="762816" shape="1,96,1,1" size="384"/>
			<output>
				<port id="1" precision="FP32">
					<dim>1</dim>
					<dim>96</dim>
					<dim>1</dim>
					<dim>1</dim>
				</port>
			</output>
		</layer>
		<layer id="31" name="StatefulPartitionedCall/functional_1/batch_normalization_5/FusedBatchNormV3/variance/Fused_Add_" type="Add" version="opset1">
			<input>
				<port id="0">
					<dim>1</dim>
					<dim>96</dim>
					<dim>35</dim>
					<dim>35</dim>
				</port>
				<port id="1">
					<dim>1</dim>
					<dim>96</dim>
					<dim>1</dim>
					<dim>1</dim>
				</port>
			</input>
			<output>
				<port id="2" precision="FP32">
					<dim>1</dim>
					<dim>96</dim>
					<dim>35</dim>
					<dim>35</dim>
				</port>
			</output>
		</layer>
		<layer id="32" name="StatefulPartitionedCall/functional_1/activation_5/Relu" type="ReLU" version="opset1">
			<input>
				<port id="0">
					<dim>1</dim>
					<dim>96</dim>
					<dim>35</dim>
					<dim>35</dim>
				</port>
			</input>
			<output>
				<port id="1" precision="FP32">
					<dim>1</dim>
					<dim>96</dim>
					<dim>35</dim>
					<dim>35</dim>
				</port>
			</output>
		</layer>
		<layer id="33" name="StatefulPartitionedCall/functional_1/batch_normalization_6/FusedBatchNormV3/mean/Fused_Mul_4666946671_const" type="Const" version="opset1">
			<data element_type="f32" offset="763200" shape="48,192,1,1" size="36864"/>
			<output>
				<port id="1" precision="FP32">
					<dim>48</dim>
					<dim>192</dim>
					<dim>1</dim>
					<dim>1</dim>
				</port>
			</output>
		</layer>
		<layer id="34" name="StatefulPartitionedCall/functional_1/conv2d_6/Conv2D" type="Convolution" version="opset1">
			<data auto_pad="same_upper" dilations="1,1" output_padding="0,0" pads_begin="0,0" pads_end="0,0" strides="1,1"/>
			<input>
				<port id="0">
					<dim>1</dim>
					<dim>192</dim>
					<dim>35</dim>
					<dim>35</dim>
				</port>
				<port id="1">
					<dim>48</dim>
					<dim>192</dim>
					<dim>1</dim>
					<dim>1</dim>
				</port>
			</input>
			<output>
				<port id="2" precision="FP32">
					<dim>1</dim>
					<dim>48</dim>
					<dim>35</dim>
					<dim>35</dim>
				</port>
			</output>
		</layer>
		<layer id="35" name="data_add_4279642801/copy_const" type="Const" version="opset1">
			<data element_type="f32" offset="800064" shape="1,48,1,1" size="192"/>
			<output>
				<port id="1" precision="FP32">
					<dim>1</dim>
					<dim>48</dim>
					<dim>1</dim>
					<dim>1</dim>
				</port>
			</output>
		</layer>
		<layer id="36" name="StatefulPartitionedCall/functional_1/batch_normalization_6/FusedBatchNormV3/variance/Fused_Add_" type="Add" version="opset1">
			<input>
				<port id="0">
					<dim>1</dim>
					<dim>48</dim>
					<dim>35</dim>
					<dim>35</dim>
				</port>
				<port id="1">
					<dim>1</dim>
					<dim>48</dim>
					<dim>1</dim>
					<dim>1</dim>
				</port>
			</input>
			<output>
				<port id="2" precision="FP32">
					<dim>1</dim>
					<dim>48</dim>
					<dim>35</dim>
					<dim>35</dim>
				</port>
			</output>
		</layer>
		<layer id="37" name="StatefulPartitionedCall/functional_1/activation_6/Relu" type="ReLU" version="opset1">
			<input>
				<port id="0">
					<dim>1</dim>
					<dim>48</dim>
					<dim>35</dim>
					<dim>35</dim>
				</port>
			</input>
			<output>
				<port id="1" precision="FP32">
					<dim>1</dim>
					<dim>48</dim>
					<dim>35</dim>
					<dim>35</dim>
				</port>
			</output>
		</layer>
		<layer id="38" name="StatefulPartitionedCall/functional_1/batch_normalization_7/FusedBatchNormV3/mean/Fused_Mul_4667346675_const" type="Const" version="opset1">
			<data element_type="f32" offset="800256" shape="64,48,5,5" size="307200"/>
			<output>
				<port id="1" precision="FP32">
					<dim>64</dim>
					<dim>48</dim>
					<dim>5</dim>
					<dim>5</dim>
				</port>
			</output>
		</layer>
		<layer id="39" name="StatefulPartitionedCall/functional_1/conv2d_7/Conv2D" type="Convolution" version="opset1">
			<data auto_pad="same_upper" dilations="1,1" output_padding="0,0" pads_begin="0,0" pads_end="0,0" strides="1,1"/>
			<input>
				<port id="0">
					<dim>1</dim>
					<dim>48</dim>
					<dim>35</dim>
					<dim>35</dim>
				</port>
				<port id="1">
					<dim>64</dim>
					<dim>48</dim>
					<dim>5</dim>
					<dim>5</dim>
				</port>
			</input>
			<output>
				<port id="2" precision="FP32">
					<dim>1</dim>
					<dim>64</dim>
					<dim>35</dim>
					<dim>35</dim>
				</port>
			</output>
		</layer>
		<layer id="40" name="data_add_4280442809/copy_const" type="Const" version="opset1">
			<data element_type="f32" offset="1107456" shape="1,64,1,1" size="256"/>
			<output>
				<port id="1" precision="FP32">
					<dim>1</dim>
					<dim>64</dim>
					<dim>1</dim>
					<dim>1</dim>
				</port>
			</output>
		</layer>
		<layer id="41" name="StatefulPartitionedCall/functional_1/batch_normalization_7/FusedBatchNormV3/variance/Fused_Add_" type="Add" version="opset1">
			<input>
				<port id="0">
					<dim>1</dim>
					<dim>64</dim>
					<dim>35</dim>
					<dim>35</dim>
				</port>
				<port id="1">
					<dim>1</dim>
					<dim>64</dim>
					<dim>1</dim>
					<dim>1</dim>
				</port>
			</input>
			<output>
				<port id="2" precision="FP32">
					<dim>1</dim>
					<dim>64</dim>
					<dim>35</dim>
					<dim>35</dim>
				</port>
			</output>
		</layer>
		<layer id="42" name="StatefulPartitionedCall/functional_1/activation_7/Relu" type="ReLU" version="opset1">
			<input>
				<port id="0">
					<dim>1</dim>
					<dim>64</dim>
					<dim>35</dim>
					<dim>35</dim>
				</port>
			</input>
			<output>
				<port id="1" precision="FP32">
					<dim>1</dim>
					<dim>64</dim>
					<dim>35</dim>
					<dim>35</dim>
				</port>
			</output>
		</layer>
		<layer id="43" name="StatefulPartitionedCall/functional_1/batch_normalization_8/FusedBatchNormV3/mean/Fused_Mul_4665746659_const" type="Const" version="opset1">
			<data element_type="f32" offset="1107712" shape="64,192,1,1" size="49152"/>
			<output>
				<port id="1" precision="FP32">
					<dim>64</dim>
					<dim>192</dim>
					<dim>1</dim>
					<dim>1</dim>
				</port>
			</output>
		</layer>
		<layer id="44" name="StatefulPartitionedCall/functional_1/conv2d_8/Conv2D" type="Convolution" version="opset1">
			<data auto_pad="same_upper" dilations="1,1" output_padding="0,0" pads_begin="0,0" pads_end="0,0" strides="1,1"/>
			<input>
				<port id="0">
					<dim>1</dim>
					<dim>192</dim>
					<dim>35</dim>
					<dim>35</dim>
				</port>
				<port id="1">
					<dim>64</dim>
					<dim>192</dim>
					<dim>1</dim>
					<dim>1</dim>
				</port>
			</input>
			<output>
				<port id="2" precision="FP32">
					<dim>1</dim>
					<dim>64</dim>
					<dim>35</dim>
					<dim>35</dim>
				</port>
			</output>
		</layer>
		<layer id="45" name="data_add_4277242777/copy_const" type="Const" version="opset1">
			<data element_type="f32" offset="1156864" shape="1,64,1,1" size="256"/>
			<output>
				<port id="1" precision="FP32">
					<dim>1</dim>
					<dim>64</dim>
					<dim>1</dim>
					<dim>1</dim>
				</port>
			</output>
		</layer>
		<layer id="46" name="StatefulPartitionedCall/functional_1/batch_normalization_8/FusedBatchNormV3/variance/Fused_Add_" type="Add" version="opset1">
			<input>
				<port id="0">
					<dim>1</dim>
					<dim>64</dim>
					<dim>35</dim>
					<dim>35</dim>
				</port>
				<port id="1">
					<dim>1</dim>
					<dim>64</dim>
					<dim>1</dim>
					<dim>1</dim>
				</port>
			</input>
			<output>
				<port id="2" precision="FP32">
					<dim>1</dim>
					<dim>64</dim>
					<dim>35</dim>
					<dim>35</dim>
				</port>
			</output>
		</layer>
		<layer id="47" name="StatefulPartitionedCall/functional_1/activation_8/Relu" type="ReLU" version="opset1">
			<input>
				<port id="0">
					<dim>1</dim>
					<dim>64</dim>
					<dim>35</dim>
					<dim>35</dim>
				</port>
			</input>
			<output>
				<port id="1" precision="FP32">
					<dim>1</dim>
					<dim>64</dim>
					<dim>35</dim>
					<dim>35</dim>
				</port>
			</output>
		</layer>
		<layer id="48" name="StatefulPartitionedCall/functional_1/batch_normalization_9/FusedBatchNormV3/mean/Fused_Mul_4666146663_const" type="Const" version="opset1">
			<data element_type="f32" offset="1157120" shape="96,64,3,3" size="221184"/>
			<output>
				<port id="1" precision="FP32">
					<dim>96</dim>
					<dim>64</dim>
					<dim>3</dim>
					<dim>3</dim>
				</port>
			</output>
		</layer>
		<layer id="49" name="StatefulPartitionedCall/functional_1/conv2d_9/Conv2D" type="Convolution" version="opset1">
			<data auto_pad="same_upper" dilations="1,1" output_padding="0,0" pads_begin="0,0" pads_end="0,0" strides="1,1"/>
			<input>
				<port id="0">
					<dim>1</dim>
					<dim>64</dim>
					<dim>35</dim>
					<dim>35</dim>
				</port>
				<port id="1">
					<dim>96</dim>
					<dim>64</dim>
					<dim>3</dim>
					<dim>3</dim>
				</port>
			</input>
			<output>
				<port id="2" precision="FP32">
					<dim>1</dim>
					<dim>96</dim>
					<dim>35</dim>
					<dim>35</dim>
				</port>
			</output>
		</layer>
		<layer id="50" name="data_add_4278042785/copy_const" type="Const" version="opset1">
			<data element_type="f32" offset="1378304" shape="1,96,1,1" size="384"/>
			<output>
				<port id="1" precision="FP32">
					<dim>1</dim>
					<dim>96</dim>
					<dim>1</dim>
					<dim>1</dim>
				</port>
			</output>
		</layer>
		<layer id="51" name="StatefulPartitionedCall/functional_1/batch_normalization_9/FusedBatchNormV3/variance/Fused_Add_" type="Add" version="opset1">
			<input>
				<port id="0">
					<dim>1</dim>
					<dim>96</dim>
					<dim>35</dim>
					<dim>35</dim>
				</port>
				<port id="1">
					<dim>1</dim>
					<dim>96</dim>
					<dim>1</dim>
					<dim>1</dim>
				</port>
			</input>
			<output>
				<port id="2" precision="FP32">
					<dim>1</dim>
					<dim>96</dim>
					<dim>35</dim>
					<dim>35</dim>
				</port>
			</output>
		</layer>
		<layer id="52" name="StatefulPartitionedCall/functional_1/activation_9/Relu" type="ReLU" version="opset1">
			<input>
				<port id="0">
					<dim>1</dim>
					<dim>96</dim>
					<dim>35</dim>
					<dim>35</dim>
				</port>
			</input>
			<output>
				<port id="1" precision="FP32">
					<dim>1</dim>
					<dim>96</dim>
					<dim>35</dim>
					<dim>35</dim>
				</port>
			</output>
		</layer>
		<layer id="53" name="StatefulPartitionedCall/functional_1/batch_normalization_10/FusedBatchNormV3/mean/Fused_Mul_4666546667_const" type="Const" version="opset1">
			<data element_type="f32" offset="1378688" shape="96,96,3,3" size="331776"/>
			<output>
				<port id="1" precision="FP32">
					<dim>96</dim>
					<dim>96</dim>
					<dim>3</dim>
					<dim>3</dim>
				</port>
			</output>
		</layer>
		<layer id="54" name="StatefulPartitionedCall/functional_1/conv2d_10/Conv2D" type="Convolution" version="opset1">
			<data auto_pad="same_upper" dilations="1,1" output_padding="0,0" pads_begin="0,0" pads_end="0,0" strides="1,1"/>
			<input>
				<port id="0">
					<dim>1</dim>
					<dim>96</dim>
					<dim>35</dim>
					<dim>35</dim>
				</port>
				<port id="1">
					<dim>96</dim>
					<dim>96</dim>
					<dim>3</dim>
					<dim>3</dim>
				</port>
			</input>
			<output>
				<port id="2" precision="FP32">
					<dim>1</dim>
					<dim>96</dim>
					<dim>35</dim>
					<dim>35</dim>
				</port>
			</output>
		</layer>
		<layer id="55" name="data_add_4278842793/copy_const" type="Const" version="opset1">
			<data element_type="f32" offset="1710464" shape="1,96,1,1" size="384"/>
			<output>
				<port id="1" precision="FP32">
					<dim>1</dim>
					<dim>96</dim>
					<dim>1</dim>
					<dim>1</dim>
				</port>
			</output>
		</layer>
		<layer id="56" name="StatefulPartitionedCall/functional_1/batch_normalization_10/FusedBatchNormV3/variance/Fused_Add_" type="Add" version="opset1">
			<input>
				<port id="0">
					<dim>1</dim>
					<dim>96</dim>
					<dim>35</dim>
					<dim>35</dim>
				</port>
				<port id="1">
					<dim>1</dim>
					<dim>96</dim>
					<dim>1</dim>
					<dim>1</dim>
				</port>
			</input>
			<output>
				<port id="2" precision="FP32">
					<dim>1</dim>
					<dim>96</dim>
					<dim>35</dim>
					<dim>35</dim>
				</port>
			</output>
		</layer>
		<layer id="57" name="StatefulPartitionedCall/functional_1/activation_10/Relu" type="ReLU" version="opset1">
			<input>
				<port id="0">
					<dim>1</dim>
					<dim>96</dim>
					<dim>35</dim>
					<dim>35</dim>
				</port>
			</input>
			<output>
				<port id="1" precision="FP32">
					<dim>1</dim>
					<dim>96</dim>
					<dim>35</dim>
					<dim>35</dim>
				</port>
			</output>
		</layer>
		<layer id="58" name="StatefulPartitionedCall/functional_1/average_pooling2d/AvgPool" type="AvgPool" version="opset1">
			<data auto_pad="same_upper" exclude-pad="true" kernel="3,3" pads_begin="1,1" pads_end="1,1" strides="1,1"/>
			<input>
				<port id="0">
					<dim>1</dim>
					<dim>192</dim>
					<dim>35</dim>
					<dim>35</dim>
				</port>
			</input>
			<output>
				<port id="1" precision="FP32">
					<dim>1</dim>
					<dim>192</dim>
					<dim>35</dim>
					<dim>35</dim>
				</port>
			</output>
		</layer>
		<layer id="59" name="StatefulPartitionedCall/functional_1/batch_normalization_11/FusedBatchNormV3/mean/Fused_Mul_4665346655_const" type="Const" version="opset1">
			<data element_type="f32" offset="1710848" shape="64,192,1,1" size="49152"/>
			<output>
				<port id="1" precision="FP32">
					<dim>64</dim>
					<dim>192</dim>
					<dim>1</dim>
					<dim>1</dim>
				</port>
			</output>
		</layer>
		<layer id="60" name="StatefulPartitionedCall/functional_1/conv2d_11/Conv2D" type="Convolution" version="opset1">
			<data auto_pad="same_upper" dilations="1,1" output_padding="0,0" pads_begin="0,0" pads_end="0,0" strides="1,1"/>
			<input>
				<port id="0">
					<dim>1</dim>
					<dim>192</dim>
					<dim>35</dim>
					<dim>35</dim>
				</port>
				<port id="1">
					<dim>64</dim>
					<dim>192</dim>
					<dim>1</dim>
					<dim>1</dim>
				</port>
			</input>
			<output>
				<port id="2" precision="FP32">
					<dim>1</dim>
					<dim>64</dim>
					<dim>35</dim>
					<dim>35</dim>
				</port>
			</output>
		</layer>
		<layer id="61" name="data_add_4276442769/copy_const" type="Const" version="opset1">
			<data element_type="f32" offset="1760000" shape="1,64,1,1" size="256"/>
			<output>
				<port id="1" precision="FP32">
					<dim>1</dim>
					<dim>64</dim>
					<dim>1</dim>
					<dim>1</dim>
				</port>
			</output>
		</layer>
		<layer id="62" name="StatefulPartitionedCall/functional_1/batch_normalization_11/FusedBatchNormV3/variance/Fused_Add_" type="Add" version="opset1">
			<input>
				<port id="0">
					<dim>1</dim>
					<dim>64</dim>
					<dim>35</dim>
					<dim>35</dim>
				</port>
				<port id="1">
					<dim>1</dim>
					<dim>64</dim>
					<dim>1</dim>
					<dim>1</dim>
				</port>
			</input>
			<output>
				<port id="2" precision="FP32">
					<dim>1</dim>
					<dim>64</dim>
					<dim>35</dim>
					<dim>35</dim>
				</port>
			</output>
		</layer>
		<layer id="63" name="StatefulPartitionedCall/functional_1/activation_11/Relu" type="ReLU" version="opset1">
			<input>
				<port id="0">
					<dim>1</dim>
					<dim>64</dim>
					<dim>35</dim>
					<dim>35</dim>
				</port>
			</input>
			<output>
				<port id="1" precision="FP32">
					<dim>1</dim>
					<dim>64</dim>
					<dim>35</dim>
					<dim>35</dim>
				</port>
			</output>
		</layer>
		<layer id="64" name="StatefulPartitionedCall/functional_1/mixed_5b/concat" type="Concat" version="opset1">
			<data axis="1"/>
			<input>
				<port id="0">
					<dim>1</dim>
					<dim>96</dim>
					<dim>35</dim>
					<dim>35</dim>
				</port>
				<port id="1">
					<dim>1</dim>
					<dim>64</dim>
					<dim>35</dim>
					<dim>35</dim>
				</port>
				<port id="2">
					<dim>1</dim>
					<dim>96</dim>
					<dim>35</dim>
					<dim>35</dim>
				</port>
				<port id="3">
					<dim>1</dim>
					<dim>64</dim>
					<dim>35</dim>
					<dim>35</dim>
				</port>
			</input>
			<output>
				<port id="4" precision="FP32">
					<dim>1</dim>
					<dim>320</dim>
					<dim>35</dim>
					<dim>35</dim>
				</port>
			</output>
		</layer>
		<layer id="65" name="StatefulPartitionedCall/functional_1/batch_normalization_12/FusedBatchNormV3/mean/Fused_Mul_4670146703_const" type="Const" version="opset1">
			<data element_type="f32" offset="1760256" shape="32,320,1,1" size="40960"/>
			<output>
				<port id="1" precision="FP32">
					<dim>32</dim>
					<dim>320</dim>
					<dim>1</dim>
					<dim>1</dim>
				</port>
			</output>
		</layer>
		<layer id="66" name="StatefulPartitionedCall/functional_1/conv2d_12/Conv2D" type="Convolution" version="opset1">
			<data auto_pad="same_upper" dilations="1,1" output_padding="0,0" pads_begin="0,0" pads_end="0,0" strides="1,1"/>
			<input>
				<port id="0">
					<dim>1</dim>
					<dim>320</dim>
					<dim>35</dim>
					<dim>35</dim>
				</port>
				<port id="1">
					<dim>32</dim>
					<dim>320</dim>
					<dim>1</dim>
					<dim>1</dim>
				</port>
			</input>
			<output>
				<port id="2" precision="FP32">
					<dim>1</dim>
					<dim>32</dim>
					<dim>35</dim>
					<dim>35</dim>
				</port>
			</output>
		</layer>
		<layer id="67" name="data_add_4286042865/copy_const" type="Const" version="opset1">
			<data element_type="f32" offset="1801216" shape="1,32,1,1" size="128"/>
			<output>
				<port id="1" precision="FP32">
					<dim>1</dim>
					<dim>32</dim>
					<dim>1</dim>
					<dim>1</dim>
				</port>
			</output>
		</layer>
		<layer id="68" name="StatefulPartitionedCall/functional_1/batch_normalization_12/FusedBatchNormV3/variance/Fused_Add_" type="Add" version="opset1">
			<input>
				<port id="0">
					<dim>1</dim>
					<dim>32</dim>
					<dim>35</dim>
					<dim>35</dim>
				</port>
				<port id="1">
					<dim>1</dim>
					<dim>32</dim>
					<dim>1</dim>
					<dim>1</dim>
				</port>
			</input>
			<output>
				<port id="2" precision="FP32">
					<dim>1</dim>
					<dim>32</dim>
					<dim>35</dim>
					<dim>35</dim>
				</port>
			</output>
		</layer>
		<layer id="69" name="StatefulPartitionedCall/functional_1/activation_12/Relu" type="ReLU" version="opset1">
			<input>
				<port id="0">
					<dim>1</dim>
					<dim>32</dim>
					<dim>35</dim>
					<dim>35</dim>
				</port>
			</input>
			<output>
				<port id="1" precision="FP32">
					<dim>1</dim>
					<dim>32</dim>
					<dim>35</dim>
					<dim>35</dim>
				</port>
			</output>
		</layer>
		<layer id="70" name="StatefulPartitionedCall/functional_1/batch_normalization_13/FusedBatchNormV3/mean/Fused_Mul_4669346695_const" type="Const" version="opset1">
			<data element_type="f32" offset="1801344" shape="32,320,1,1" size="40960"/>
			<output>
				<port id="1" precision="FP32">
					<dim>32</dim>
					<dim>320</dim>
					<dim>1</dim>
					<dim>1</dim>
				</port>
			</output>
		</layer>
		<layer id="71" name="StatefulPartitionedCall/functional_1/conv2d_13/Conv2D" type="Convolution" version="opset1">
			<data auto_pad="same_upper" dilations="1,1" output_padding="0,0" pads_begin="0,0" pads_end="0,0" strides="1,1"/>
			<input>
				<port id="0">
					<dim>1</dim>
					<dim>320</dim>
					<dim>35</dim>
					<dim>35</dim>
				</port>
				<port id="1">
					<dim>32</dim>
					<dim>320</dim>
					<dim>1</dim>
					<dim>1</dim>
				</port>
			</input>
			<output>
				<port id="2" precision="FP32">
					<dim>1</dim>
					<dim>32</dim>
					<dim>35</dim>
					<dim>35</dim>
				</port>
			</output>
		</layer>
		<layer id="72" name="data_add_4284442849/copy_const" type="Const" version="opset1">
			<data element_type="f32" offset="1842304" shape="1,32,1,1" size="128"/>
			<output>
				<port id="1" precision="FP32">
					<dim>1</dim>
					<dim>32</dim>
					<dim>1</dim>
					<dim>1</dim>
				</port>
			</output>
		</layer>
		<layer id="73" name="StatefulPartitionedCall/functional_1/batch_normalization_13/FusedBatchNormV3/variance/Fused_Add_" type="Add" version="opset1">
			<input>
				<port id="0">
					<dim>1</dim>
					<dim>32</dim>
					<dim>35</dim>
					<dim>35</dim>
				</port>
				<port id="1">
					<dim>1</dim>
					<dim>32</dim>
					<dim>1</dim>
					<dim>1</dim>
				</port>
			</input>
			<output>
				<port id="2" precision="FP32">
					<dim>1</dim>
					<dim>32</dim>
					<dim>35</dim>
					<dim>35</dim>
				</port>
			</output>
		</layer>
		<layer id="74" name="StatefulPartitionedCall/functional_1/activation_13/Relu" type="ReLU" version="opset1">
			<input>
				<port id="0">
					<dim>1</dim>
					<dim>32</dim>
					<dim>35</dim>
					<dim>35</dim>
				</port>
			</input>
			<output>
				<port id="1" precision="FP32">
					<dim>1</dim>
					<dim>32</dim>
					<dim>35</dim>
					<dim>35</dim>
				</port>
			</output>
		</layer>
		<layer id="75" name="StatefulPartitionedCall/functional_1/batch_normalization_14/FusedBatchNormV3/mean/Fused_Mul_4669746699_const" type="Const" version="opset1">
			<data element_type="f32" offset="1842432" shape="32,32,3,3" size="36864"/>
			<output>
				<port id="1" precision="FP32">
					<dim>32</dim>
					<dim>32</dim>
					<dim>3</dim>
					<dim>3</dim>
				</port>
			</output>
		</layer>
		<layer id="76" name="StatefulPartitionedCall/functional_1/conv2d_14/Conv2D" type="Convolution" version="opset1">
			<data auto_pad="same_upper" dilations="1,1" output_padding="0,0" pads_begin="0,0" pads_end="0,0" strides="1,1"/>
			<input>
				<port id="0">
					<dim>1</dim>
					<dim>32</dim>
					<dim>35</dim>
					<dim>35</dim>
				</port>
				<port id="1">
					<dim>32</dim>
					<dim>32</dim>
					<dim>3</dim>
					<dim>3</dim>
				</port>
			</input>
			<output>
				<port id="2" precision="FP32">
					<dim>1</dim>
					<dim>32</dim>
					<dim>35</dim>
					<dim>35</dim>
				</port>
			</output>
		</layer>
		<layer id="77" name="data_add_4285242857/copy_const" type="Const" version="opset1">
			<data element_type="f32" offset="1879296" shape="1,32,1,1" size="128"/>
			<output>
				<port id="1" precision="FP32">
					<dim>1</dim>
					<dim>32</dim>
					<dim>1</dim>
					<dim>1</dim>
				</port>
			</output>
		</layer>
		<layer id="78" name="StatefulPartitionedCall/functional_1/batch_normalization_14/FusedBatchNormV3/variance/Fused_Add_" type="Add" version="opset1">
			<input>
				<port id="0">
					<dim>1</dim>
					<dim>32</dim>
					<dim>35</dim>
					<dim>35</dim>
				</port>
				<port id="1">
					<dim>1</dim>
					<dim>32</dim>
					<dim>1</dim>
					<dim>1</dim>
				</port>
			</input>
			<output>
				<port id="2" precision="FP32">
					<dim>1</dim>
					<dim>32</dim>
					<dim>35</dim>
					<dim>35</dim>
				</port>
			</output>
		</layer>
		<layer id="79" name="StatefulPartitionedCall/functional_1/activation_14/Relu" type="ReLU" version="opset1">
			<input>
				<port id="0">
					<dim>1</dim>
					<dim>32</dim>
					<dim>35</dim>
					<dim>35</dim>
				</port>
			</input>
			<output>
				<port id="1" precision="FP32">
					<dim>1</dim>
					<dim>32</dim>
					<dim>35</dim>
					<dim>35</dim>
				</port>
			</output>
		</layer>
		<layer id="80" name="StatefulPartitionedCall/functional_1/batch_normalization_15/FusedBatchNormV3/mean/Fused_Mul_4668146683_const" type="Const" version="opset1">
			<data element_type="f32" offset="1879424" shape="32,320,1,1" size="40960"/>
			<output>
				<port id="1" precision="FP32">
					<dim>32</dim>
					<dim>320</dim>
					<dim>1</dim>
					<dim>1</dim>
				</port>
			</output>
		</layer>
		<layer id="81" name="StatefulPartitionedCall/functional_1/conv2d_15/Conv2D" type="Convolution" version="opset1">
			<data auto_pad="same_upper" dilations="1,1" output_padding="0,0" pads_begin="0,0" pads_end="0,0" strides="1,1"/>
			<input>
				<port id="0">
					<dim>1</dim>
					<dim>320</dim>
					<dim>35</dim>
					<dim>35</dim>
				</port>
				<port id="1">
					<dim>32</dim>
					<dim>320</dim>
					<dim>1</dim>
					<dim>1</dim>
				</port>
			</input>
			<output>
				<port id="2" precision="FP32">
					<dim>1</dim>
					<dim>32</dim>
					<dim>35</dim>
					<dim>35</dim>
				</port>
			</output>
		</layer>
		<layer id="82" name="data_add_4282042825/copy_const" type="Const" version="opset1">
			<data element_type="f32" offset="1920384" shape="1,32,1,1" size="128"/>
			<output>
				<port id="1" precision="FP32">
					<dim>1</dim>
					<dim>32</dim>
					<dim>1</dim>
					<dim>1</dim>
				</port>
			</output>
		</layer>
		<layer id="83" name="StatefulPartitionedCall/functional_1/batch_normalization_15/FusedBatchNormV3/variance/Fused_Add_" type="Add" version="opset1">
			<input>
				<port id="0">
					<dim>1</dim>
					<dim>32</dim>
					<dim>35</dim>
					<dim>35</dim>
				</port>
				<port id="1">
					<dim>1</dim>
					<dim>32</dim>
					<dim>1</dim>
					<dim>1</dim>
				</port>
			</input>
			<output>
				<port id="2" precision="FP32">
					<dim>1</dim>
					<dim>32</dim>
					<dim>35</dim>
					<dim>35</dim>
				</port>
			</output>
		</layer>
		<layer id="84" name="StatefulPartitionedCall/functional_1/activation_15/Relu" type="ReLU" version="opset1">
			<input>
				<port id="0">
					<dim>1</dim>
					<dim>32</dim>
					<dim>35</dim>
					<dim>35</dim>
				</port>
			</input>
			<output>
				<port id="1" precision="FP32">
					<dim>1</dim>
					<dim>32</dim>
					<dim>35</dim>
					<dim>35</dim>
				</port>
			</output>
		</layer>
		<layer id="85" name="StatefulPartitionedCall/functional_1/batch_normalization_16/FusedBatchNormV3/mean/Fused_Mul_4668546687_const" type="Const" version="opset1">
			<data element_type="f32" offset="1920512" shape="48,32,3,3" size="55296"/>
			<output>
				<port id="1" precision="FP32">
					<dim>48</dim>
					<dim>32</dim>
					<dim>3</dim>
					<dim>3</dim>
				</port>
			</output>
		</layer>
		<layer id="86" name="StatefulPartitionedCall/functional_1/conv2d_16/Conv2D" type="Convolution" version="opset1">
			<data auto_pad="same_upper" dilations="1,1" output_padding="0,0" pads_begin="0,0" pads_end="0,0" strides="1,1"/>
			<input>
				<port id="0">
					<dim>1</dim>
					<dim>32</dim>
					<dim>35</dim>
					<dim>35</dim>
				</port>
				<port id="1">
					<dim>48</dim>
					<dim>32</dim>
					<dim>3</dim>
					<dim>3</dim>
				</port>
			</input>
			<output>
				<port id="2" precision="FP32">
					<dim>1</dim>
					<dim>48</dim>
					<dim>35</dim>
					<dim>35</dim>
				</port>
			</output>
		</layer>
		<layer id="87" name="data_add_4282842833/copy_const" type="Const" version="opset1">
			<data element_type="f32" offset="1975808" shape="1,48,1,1" size="192"/>
			<output>
				<port id="1" precision="FP32">
					<dim>1</dim>
					<dim>48</dim>
					<dim>1</dim>
					<dim>1</dim>
				</port>
			</output>
		</layer>
		<layer id="88" name="StatefulPartitionedCall/functional_1/batch_normalization_16/FusedBatchNormV3/variance/Fused_Add_" type="Add" version="opset1">
			<input>
				<port id="0">
					<dim>1</dim>
					<dim>48</dim>
					<dim>35</dim>
					<dim>35</dim>
				</port>
				<port id="1">
					<dim>1</dim>
					<dim>48</dim>
					<dim>1</dim>
					<dim>1</dim>
				</port>
			</input>
			<output>
				<port id="2" precision="FP32">
					<dim>1</dim>
					<dim>48</dim>
					<dim>35</dim>
					<dim>35</dim>
				</port>
			</output>
		</layer>
		<layer id="89" name="StatefulPartitionedCall/functional_1/activation_16/Relu" type="ReLU" version="opset1">
			<input>
				<port id="0">
					<dim>1</dim>
					<dim>48</dim>
					<dim>35</dim>
					<dim>35</dim>
				</port>
			</input>
			<output>
				<port id="1" precision="FP32">
					<dim>1</dim>
					<dim>48</dim>
					<dim>35</dim>
					<dim>35</dim>
				</port>
			</output>
		</layer>
		<layer id="90" name="StatefulPartitionedCall/functional_1/batch_normalization_17/FusedBatchNormV3/mean/Fused_Mul_4668946691_const" type="Const" version="opset1">
			<data element_type="f32" offset="1976000" shape="64,48,3,3" size="110592"/>
			<output>
				<port id="1" precision="FP32">
					<dim>64</dim>
					<dim>48</dim>
					<dim>3</dim>
					<dim>3</dim>
				</port>
			</output>
		</layer>
		<layer id="91" name="StatefulPartitionedCall/functional_1/conv2d_17/Conv2D" type="Convolution" version="opset1">
			<data auto_pad="same_upper" dilations="1,1" output_padding="0,0" pads_begin="0,0" pads_end="0,0" strides="1,1"/>
			<input>
				<port id="0">
					<dim>1</dim>
					<dim>48</dim>
					<dim>35</dim>
					<dim>35</dim>
				</port>
				<port id="1">
					<dim>64</dim>
					<dim>48</dim>
					<dim>3</dim>
					<dim>3</dim>
				</port>
			</input>
			<output>
				<port id="2" precision="FP32">
					<dim>1</dim>
					<dim>64</dim>
					<dim>35</dim>
					<dim>35</dim>
				</port>
			</output>
		</layer>
		<layer id="92" name="data_add_4283642841/copy_const" type="Const" version="opset1">
			<data element_type="f32" offset="2086592" shape="1,64,1,1" size="256"/>
			<output>
				<port id="1" precision="FP32">
					<dim>1</dim>
					<dim>64</dim>
					<dim>1</dim>
					<dim>1</dim>
				</port>
			</output>
		</layer>
		<layer id="93" name="StatefulPartitionedCall/functional_1/batch_normalization_17/FusedBatchNormV3/variance/Fused_Add_" type="Add" version="opset1">
			<input>
				<port id="0">
					<dim>1</dim>
					<dim>64</dim>
					<dim>35</dim>
					<dim>35</dim>
				</port>
				<port id="1">
					<dim>1</dim>
					<dim>64</dim>
					<dim>1</dim>
					<dim>1</dim>
				</port>
			</input>
			<output>
				<port id="2" precision="FP32">
					<dim>1</dim>
					<dim>64</dim>
					<dim>35</dim>
					<dim>35</dim>
				</port>
			</output>
		</layer>
		<layer id="94" name="StatefulPartitionedCall/functional_1/activation_17/Relu" type="ReLU" version="opset1">
			<input>
				<port id="0">
					<dim>1</dim>
					<dim>64</dim>
					<dim>35</dim>
					<dim>35</dim>
				</port>
			</input>
			<output>
				<port id="1" precision="FP32">
					<dim>1</dim>
					<dim>64</dim>
					<dim>35</dim>
					<dim>35</dim>
				</port>
			</output>
		</layer>
		<layer id="95" name="StatefulPartitionedCall/functional_1/block35_1_mixed/concat" type="Concat" version="opset1">
			<data axis="1"/>
			<input>
				<port id="0">
					<dim>1</dim>
					<dim>32</dim>
					<dim>35</dim>
					<dim>35</dim>
				</port>
				<port id="1">
					<dim>1</dim>
					<dim>32</dim>
					<dim>35</dim>
					<dim>35</dim>
				</port>
				<port id="2">
					<dim>1</dim>
					<dim>64</dim>
					<dim>35</dim>
					<dim>35</dim>
				</port>
			</input>
			<output>
				<port id="3" precision="FP32">
					<dim>1</dim>
					<dim>128</dim>
					<dim>35</dim>
					<dim>35</dim>
				</port>
			</output>
		</layer>
		<layer id="96" name="StatefulPartitionedCall/functional_1/block35_1/mul/Fused_Mul_4670546707_const" type="Const" version="opset1">
			<data element_type="f32" offset="2086848" shape="320,128,1,1" size="163840"/>
			<output>
				<port id="1" precision="FP32">
					<dim>320</dim>
					<dim>128</dim>
					<dim>1</dim>
					<dim>1</dim>
				</port>
			</output>
		</layer>
		<layer id="97" name="StatefulPartitionedCall/functional_1/block35_1_conv/Conv2D" type="Convolution" version="opset1">
			<data auto_pad="same_upper" dilations="1,1" output_padding="0,0" pads_begin="0,0" pads_end="0,0" strides="1,1"/>
			<input>
				<port id="0">
					<dim>1</dim>
					<dim>128</dim>
					<dim>35</dim>
					<dim>35</dim>
				</port>
				<port id="1">
					<dim>320</dim>
					<dim>128</dim>
					<dim>1</dim>
					<dim>1</dim>
				</port>
			</input>
			<output>
				<port id="2" precision="FP32">
					<dim>1</dim>
					<dim>320</dim>
					<dim>35</dim>
					<dim>35</dim>
				</port>
			</output>
		</layer>
		<layer id="98" name="data_add_4286842873/copy_const" type="Const" version="opset1">
			<data element_type="f32" offset="2250688" shape="1,320,1,1" size="1280"/>
			<output>
				<port id="1" precision="FP32">
					<dim>1</dim>
					<dim>320</dim>
					<dim>1</dim>
					<dim>1</dim>
				</port>
			</output>
		</layer>
		<layer id="99" name="StatefulPartitionedCall/functional_1/block35_1_conv/BiasAdd/Add/Fused_Add_" type="Add" version="opset1">
			<input>
				<port id="0">
					<dim>1</dim>
					<dim>320</dim>
					<dim>35</dim>
					<dim>35</dim>
				</port>
				<port id="1">
					<dim>1</dim>
					<dim>320</dim>
					<dim>1</dim>
					<dim>1</dim>
				</port>
			</input>
			<output>
				<port id="2" precision="FP32">
					<dim>1</dim>
					<dim>320</dim>
					<dim>35</dim>
					<dim>35</dim>
				</port>
			</output>
		</layer>
		<layer id="100" name="StatefulPartitionedCall/functional_1/block35_1/add" type="Add" version="opset1">
			<input>
				<port id="0">
					<dim>1</dim>
					<dim>320</dim>
					<dim>35</dim>
					<dim>35</dim>
				</port>
				<port id="1">
					<dim>1</dim>
					<dim>320</dim>
					<dim>35</dim>
					<dim>35</dim>
				</port>
			</input>
			<output>
				<port id="2" precision="FP32">
					<dim>1</dim>
					<dim>320</dim>
					<dim>35</dim>
					<dim>35</dim>
				</port>
			</output>
		</layer>
		<layer id="101" name="StatefulPartitionedCall/functional_1/block35_1_ac/Relu" type="ReLU" version="opset1">
			<input>
				<port id="0">
					<dim>1</dim>
					<dim>320</dim>
					<dim>35</dim>
					<dim>35</dim>
				</port>
			</input>
			<output>
				<port id="1" precision="FP32">
					<dim>1</dim>
					<dim>320</dim>
					<dim>35</dim>
					<dim>35</dim>
				</port>
			</output>
		</layer>
		<layer id="102" name="StatefulPartitionedCall/functional_1/batch_normalization_18/FusedBatchNormV3/mean/Fused_Mul_4672946731_const" type="Const" version="opset1">
			<data element_type="f32" offset="2251968" shape="32,320,1,1" size="40960"/>
			<output>
				<port id="1" precision="FP32">
					<dim>32</dim>
					<dim>320</dim>
					<dim>1</dim>
					<dim>1</dim>
				</port>
			</output>
		</layer>
		<layer id="103" name="StatefulPartitionedCall/functional_1/conv2d_18/Conv2D" type="Convolution" version="opset1">
			<data auto_pad="same_upper" dilations="1,1" output_padding="0,0" pads_begin="0,0" pads_end="0,0" strides="1,1"/>
			<input>
				<port id="0">
					<dim>1</dim>
					<dim>320</dim>
					<dim>35</dim>
					<dim>35</dim>
				</port>
				<port id="1">
					<dim>32</dim>
					<dim>320</dim>
					<dim>1</dim>
					<dim>1</dim>
				</port>
			</input>
			<output>
				<port id="2" precision="FP32">
					<dim>1</dim>
					<dim>32</dim>
					<dim>35</dim>
					<dim>35</dim>
				</port>
			</output>
		</layer>
		<layer id="104" name="data_add_4291642921/copy_const" type="Const" version="opset1">
			<data element_type="f32" offset="2292928" shape="1,32,1,1" size="128"/>
			<output>
				<port id="1" precision="FP32">
					<dim>1</dim>
					<dim>32</dim>
					<dim>1</dim>
					<dim>1</dim>
				</port>
			</output>
		</layer>
		<layer id="105" name="StatefulPartitionedCall/functional_1/batch_normalization_18/FusedBatchNormV3/variance/Fused_Add_" type="Add" version="opset1">
			<input>
				<port id="0">
					<dim>1</dim>
					<dim>32</dim>
					<dim>35</dim>
					<dim>35</dim>
				</port>
				<port id="1">
					<dim>1</dim>
					<dim>32</dim>
					<dim>1</dim>
					<dim>1</dim>
				</port>
			</input>
			<output>
				<port id="2" precision="FP32">
					<dim>1</dim>
					<dim>32</dim>
					<dim>35</dim>
					<dim>35</dim>
				</port>
			</output>
		</layer>
		<layer id="106" name="StatefulPartitionedCall/functional_1/activation_18/Relu" type="ReLU" version="opset1">
			<input>
				<port id="0">
					<dim>1</dim>
					<dim>32</dim>
					<dim>35</dim>
					<dim>35</dim>
				</port>
			</input>
			<output>
				<port id="1" precision="FP32">
					<dim>1</dim>
					<dim>32</dim>
					<dim>35</dim>
					<dim>35</dim>
				</port>
			</output>
		</layer>
		<layer id="107" name="StatefulPartitionedCall/functional_1/batch_normalization_19/FusedBatchNormV3/mean/Fused_Mul_4672146723_const" type="Const" version="opset1">
			<data element_type="f32" offset="2293056" shape="32,320,1,1" size="40960"/>
			<output>
				<port id="1" precision="FP32">
					<dim>32</dim>
					<dim>320</dim>
					<dim>1</dim>
					<dim>1</dim>
				</port>
			</output>
		</layer>
		<layer id="108" name="StatefulPartitionedCall/functional_1/conv2d_19/Conv2D" type="Convolution" version="opset1">
			<data auto_pad="same_upper" dilations="1,1" output_padding="0,0" pads_begin="0,0" pads_end="0,0" strides="1,1"/>
			<input>
				<port id="0">
					<dim>1</dim>
					<dim>320</dim>
					<dim>35</dim>
					<dim>35</dim>
				</port>
				<port id="1">
					<dim>32</dim>
					<dim>320</dim>
					<dim>1</dim>
					<dim>1</dim>
				</port>
			</input>
			<output>
				<port id="2" precision="FP32">
					<dim>1</dim>
					<dim>32</dim>
					<dim>35</dim>
					<dim>35</dim>
				</port>
			</output>
		</layer>
		<layer id="109" name="data_add_4290042905/copy_const" type="Const" version="opset1">
			<data element_type="f32" offset="2334016" shape="1,32,1,1" size="128"/>
			<output>
				<port id="1" precision="FP32">
					<dim>1</dim>
					<dim>32</dim>
					<dim>1</dim>
					<dim>1</dim>
				</port>
			</output>
		</layer>
		<layer id="110" name="StatefulPartitionedCall/functional_1/batch_normalization_19/FusedBatchNormV3/variance/Fused_Add_" type="Add" version="opset1">
			<input>
				<port id="0">
					<dim>1</dim>
					<dim>32</dim>
					<dim>35</dim>
					<dim>35</dim>
				</port>
				<port id="1">
					<dim>1</dim>
					<dim>32</dim>
					<dim>1</dim>
					<dim>1</dim>
				</port>
			</input>
			<output>
				<port id="2" precision="FP32">
					<dim>1</dim>
					<dim>32</dim>
					<dim>35</dim>
					<dim>35</dim>
				</port>
			</output>
		</layer>
		<layer id="111" name="StatefulPartitionedCall/functional_1/activation_19/Relu" type="ReLU" version="opset1">
			<input>
				<port id="0">
					<dim>1</dim>
					<dim>32</dim>
					<dim>35</dim>
					<dim>35</dim>
				</port>
			</input>
			<output>
				<port id="1" precision="FP32">
					<dim>1</dim>
					<dim>32</dim>
					<dim>35</dim>
					<dim>35</dim>
				</port>
			</output>
		</layer>
		<layer id="112" name="StatefulPartitionedCall/functional_1/batch_normalization_20/FusedBatchNormV3/mean/Fused_Mul_4672546727_const" type="Const" version="opset1">
			<data element_type="f32" offset="2334144" shape="32,32,3,3" size="36864"/>
			<output>
				<port id="1" precision="FP32">
					<dim>32</dim>
					<dim>32</dim>
					<dim>3</dim>
					<dim>3</dim>
				</port>
			</output>
		</layer>
		<layer id="113" name="StatefulPartitionedCall/functional_1/conv2d_20/Conv2D" type="Convolution" version="opset1">
			<data auto_pad="same_upper" dilations="1,1" output_padding="0,0" pads_begin="0,0" pads_end="0,0" strides="1,1"/>
			<input>
				<port id="0">
					<dim>1</dim>
					<dim>32</dim>
					<dim>35</dim>
					<dim>35</dim>
				</port>
				<port id="1">
					<dim>32</dim>
					<dim>32</dim>
					<dim>3</dim>
					<dim>3</dim>
				</port>
			</input>
			<output>
				<port id="2" precision="FP32">
					<dim>1</dim>
					<dim>32</dim>
					<dim>35</dim>
					<dim>35</dim>
				</port>
			</output>
		</layer>
		<layer id="114" name="data_add_4290842913/copy_const" type="Const" version="opset1">
			<data element_type="f32" offset="2371008" shape="1,32,1,1" size="128"/>
			<output>
				<port id="1" precision="FP32">
					<dim>1</dim>
					<dim>32</dim>
					<dim>1</dim>
					<dim>1</dim>
				</port>
			</output>
		</layer>
		<layer id="115" name="StatefulPartitionedCall/functional_1/batch_normalization_20/FusedBatchNormV3/variance/Fused_Add_" type="Add" version="opset1">
			<input>
				<port id="0">
					<dim>1</dim>
					<dim>32</dim>
					<dim>35</dim>
					<dim>35</dim>
				</port>
				<port id="1">
					<dim>1</dim>
					<dim>32</dim>
					<dim>1</dim>
					<dim>1</dim>
				</port>
			</input>
			<output>
				<port id="2" precision="FP32">
					<dim>1</dim>
					<dim>32</dim>
					<dim>35</dim>
					<dim>35</dim>
				</port>
			</output>
		</layer>
		<layer id="116" name="StatefulPartitionedCall/functional_1/activation_20/Relu" type="ReLU" version="opset1">
			<input>
				<port id="0">
					<dim>1</dim>
					<dim>32</dim>
					<dim>35</dim>
					<dim>35</dim>
				</port>
			</input>
			<output>
				<port id="1" precision="FP32">
					<dim>1</dim>
					<dim>32</dim>
					<dim>35</dim>
					<dim>35</dim>
				</port>
			</output>
		</layer>
		<layer id="117" name="StatefulPartitionedCall/functional_1/batch_normalization_21/FusedBatchNormV3/mean/Fused_Mul_4670946711_const" type="Const" version="opset1">
			<data element_type="f32" offset="2371136" shape="32,320,1,1" size="40960"/>
			<output>
				<port id="1" precision="FP32">
					<dim>32</dim>
					<dim>320</dim>
					<dim>1</dim>
					<dim>1</dim>
				</port>
			</output>
		</layer>
		<layer id="118" name="StatefulPartitionedCall/functional_1/conv2d_21/Conv2D" type="Convolution" version="opset1">
			<data auto_pad="same_upper" dilations="1,1" output_padding="0,0" pads_begin="0,0" pads_end="0,0" strides="1,1"/>
			<input>
				<port id="0">
					<dim>1</dim>
					<dim>320</dim>
					<dim>35</dim>
					<dim>35</dim>
				</port>
				<port id="1">
					<dim>32</dim>
					<dim>320</dim>
					<dim>1</dim>
					<dim>1</dim>
				</port>
			</input>
			<output>
				<port id="2" precision="FP32">
					<dim>1</dim>
					<dim>32</dim>
					<dim>35</dim>
					<dim>35</dim>
				</port>
			</output>
		</layer>
		<layer id="119" name="data_add_4287642881/copy_const" type="Const" version="opset1">
			<data element_type="f32" offset="2412096" shape="1,32,1,1" size="128"/>
			<output>
				<port id="1" precision="FP32">
					<dim>1</dim>
					<dim>32</dim>
					<dim>1</dim>
					<dim>1</dim>
				</port>
			</output>
		</layer>
		<layer id="120" name="StatefulPartitionedCall/functional_1/batch_normalization_21/FusedBatchNormV3/variance/Fused_Add_" type="Add" version="opset1">
			<input>
				<port id="0">
					<dim>1</dim>
					<dim>32</dim>
					<dim>35</dim>
					<dim>35</dim>
				</port>
				<port id="1">
					<dim>1</dim>
					<dim>32</dim>
					<dim>1</dim>
					<dim>1</dim>
				</port>
			</input>
			<output>
				<port id="2" precision="FP32">
					<dim>1</dim>
					<dim>32</dim>
					<dim>35</dim>
					<dim>35</dim>
				</port>
			</output>
		</layer>
		<layer id="121" name="StatefulPartitionedCall/functional_1/activation_21/Relu" type="ReLU" version="opset1">
			<input>
				<port id="0">
					<dim>1</dim>
					<dim>32</dim>
					<dim>35</dim>
					<dim>35</dim>
				</port>
			</input>
			<output>
				<port id="1" precision="FP32">
					<dim>1</dim>
					<dim>32</dim>
					<dim>35</dim>
					<dim>35</dim>
				</port>
			</output>
		</layer>
		<layer id="122" name="StatefulPartitionedCall/functional_1/batch_normalization_22/FusedBatchNormV3/mean/Fused_Mul_4671346715_const" type="Const" version="opset1">
			<data element_type="f32" offset="2412224" shape="48,32,3,3" size="55296"/>
			<output>
				<port id="1" precision="FP32">
					<dim>48</dim>
					<dim>32</dim>
					<dim>3</dim>
					<dim>3</dim>
				</port>
			</output>
		</layer>
		<layer id="123" name="StatefulPartitionedCall/functional_1/conv2d_22/Conv2D" type="Convolution" version="opset1">
			<data auto_pad="same_upper" dilations="1,1" output_padding="0,0" pads_begin="0,0" pads_end="0,0" strides="1,1"/>
			<input>
				<port id="0">
					<dim>1</dim>
					<dim>32</dim>
					<dim>35</dim>
					<dim>35</dim>
				</port>
				<port id="1">
					<dim>48</dim>
					<dim>32</dim>
					<dim>3</dim>
					<dim>3</dim>
				</port>
			</input>
			<output>
				<port id="2" precision="FP32">
					<dim>1</dim>
					<dim>48</dim>
					<dim>35</dim>
					<dim>35</dim>
				</port>
			</output>
		</layer>
		<layer id="124" name="data_add_4288442889/copy_const" type="Const" version="opset1">
			<data element_type="f32" offset="2467520" shape="1,48,1,1" size="192"/>
			<output>
				<port id="1" precision="FP32">
					<dim>1</dim>
					<dim>48</dim>
					<dim>1</dim>
					<dim>1</dim>
				</port>
			</output>
		</layer>
		<layer id="125" name="StatefulPartitionedCall/functional_1/batch_normalization_22/FusedBatchNormV3/variance/Fused_Add_" type="Add" version="opset1">
			<input>
				<port id="0">
					<dim>1</dim>
					<dim>48</dim>
					<dim>35</dim>
					<dim>35</dim>
				</port>
				<port id="1">
					<dim>1</dim>
					<dim>48</dim>
					<dim>1</dim>
					<dim>1</dim>
				</port>
			</input>
			<output>
				<port id="2" precision="FP32">
					<dim>1</dim>
					<dim>48</dim>
					<dim>35</dim>
					<dim>35</dim>
				</port>
			</output>
		</layer>
		<layer id="126" name="StatefulPartitionedCall/functional_1/activation_22/Relu" type="ReLU" version="opset1">
			<input>
				<port id="0">
					<dim>1</dim>
					<dim>48</dim>
					<dim>35</dim>
					<dim>35</dim>
				</port>
			</input>
			<output>
				<port id="1" precision="FP32">
					<dim>1</dim>
					<dim>48</dim>
					<dim>35</dim>
					<dim>35</dim>
				</port>
			</output>
		</layer>
		<layer id="127" name="StatefulPartitionedCall/functional_1/batch_normalization_23/FusedBatchNormV3/mean/Fused_Mul_4671746719_const" type="Const" version="opset1">
			<data element_type="f32" offset="2467712" shape="64,48,3,3" size="110592"/>
			<output>
				<port id="1" precision="FP32">
					<dim>64</dim>
					<dim>48</dim>
					<dim>3</dim>
					<dim>3</dim>
				</port>
			</output>
		</layer>
		<layer id="128" name="StatefulPartitionedCall/functional_1/conv2d_23/Conv2D" type="Convolution" version="opset1">
			<data auto_pad="same_upper" dilations="1,1" output_padding="0,0" pads_begin="0,0" pads_end="0,0" strides="1,1"/>
			<input>
				<port id="0">
					<dim>1</dim>
					<dim>48</dim>
					<dim>35</dim>
					<dim>35</dim>
				</port>
				<port id="1">
					<dim>64</dim>
					<dim>48</dim>
					<dim>3</dim>
					<dim>3</dim>
				</port>
			</input>
			<output>
				<port id="2" precision="FP32">
					<dim>1</dim>
					<dim>64</dim>
					<dim>35</dim>
					<dim>35</dim>
				</port>
			</output>
		</layer>
		<layer id="129" name="data_add_4289242897/copy_const" type="Const" version="opset1">
			<data element_type="f32" offset="2578304" shape="1,64,1,1" size="256"/>
			<output>
				<port id="1" precision="FP32">
					<dim>1</dim>
					<dim>64</dim>
					<dim>1</dim>
					<dim>1</dim>
				</port>
			</output>
		</layer>
		<layer id="130" name="StatefulPartitionedCall/functional_1/batch_normalization_23/FusedBatchNormV3/variance/Fused_Add_" type="Add" version="opset1">
			<input>
				<port id="0">
					<dim>1</dim>
					<dim>64</dim>
					<dim>35</dim>
					<dim>35</dim>
				</port>
				<port id="1">
					<dim>1</dim>
					<dim>64</dim>
					<dim>1</dim>
					<dim>1</dim>
				</port>
			</input>
			<output>
				<port id="2" precision="FP32">
					<dim>1</dim>
					<dim>64</dim>
					<dim>35</dim>
					<dim>35</dim>
				</port>
			</output>
		</layer>
		<layer id="131" name="StatefulPartitionedCall/functional_1/activation_23/Relu" type="ReLU" version="opset1">
			<input>
				<port id="0">
					<dim>1</dim>
					<dim>64</dim>
					<dim>35</dim>
					<dim>35</dim>
				</port>
			</input>
			<output>
				<port id="1" precision="FP32">
					<dim>1</dim>
					<dim>64</dim>
					<dim>35</dim>
					<dim>35</dim>
				</port>
			</output>
		</layer>
		<layer id="132" name="StatefulPartitionedCall/functional_1/block35_2_mixed/concat" type="Concat" version="opset1">
			<data axis="1"/>
			<input>
				<port id="0">
					<dim>1</dim>
					<dim>32</dim>
					<dim>35</dim>
					<dim>35</dim>
				</port>
				<port id="1">
					<dim>1</dim>
					<dim>32</dim>
					<dim>35</dim>
					<dim>35</dim>
				</port>
				<port id="2">
					<dim>1</dim>
					<dim>64</dim>
					<dim>35</dim>
					<dim>35</dim>
				</port>
			</input>
			<output>
				<port id="3" precision="FP32">
					<dim>1</dim>
					<dim>128</dim>
					<dim>35</dim>
					<dim>35</dim>
				</port>
			</output>
		</layer>
		<layer id="133" name="StatefulPartitionedCall/functional_1/block35_2/mul/Fused_Mul_4673346735_const" type="Const" version="opset1">
			<data element_type="f32" offset="2578560" shape="320,128,1,1" size="163840"/>
			<output>
				<port id="1" precision="FP32">
					<dim>320</dim>
					<dim>128</dim>
					<dim>1</dim>
					<dim>1</dim>
				</port>
			</output>
		</layer>
		<layer id="134" name="StatefulPartitionedCall/functional_1/block35_2_conv/Conv2D" type="Convolution" version="opset1">
			<data auto_pad="same_upper" dilations="1,1" output_padding="0,0" pads_begin="0,0" pads_end="0,0" strides="1,1"/>
			<input>
				<port id="0">
					<dim>1</dim>
					<dim>128</dim>
					<dim>35</dim>
					<dim>35</dim>
				</port>
				<port id="1">
					<dim>320</dim>
					<dim>128</dim>
					<dim>1</dim>
					<dim>1</dim>
				</port>
			</input>
			<output>
				<port id="2" precision="FP32">
					<dim>1</dim>
					<dim>320</dim>
					<dim>35</dim>
					<dim>35</dim>
				</port>
			</output>
		</layer>
		<layer id="135" name="data_add_4292442929/copy_const" type="Const" version="opset1">
			<data element_type="f32" offset="2742400" shape="1,320,1,1" size="1280"/>
			<output>
				<port id="1" precision="FP32">
					<dim>1</dim>
					<dim>320</dim>
					<dim>1</dim>
					<dim>1</dim>
				</port>
			</output>
		</layer>
		<layer id="136" name="StatefulPartitionedCall/functional_1/block35_2_conv/BiasAdd/Add/Fused_Add_" type="Add" version="opset1">
			<input>
				<port id="0">
					<dim>1</dim>
					<dim>320</dim>
					<dim>35</dim>
					<dim>35</dim>
				</port>
				<port id="1">
					<dim>1</dim>
					<dim>320</dim>
					<dim>1</dim>
					<dim>1</dim>
				</port>
			</input>
			<output>
				<port id="2" precision="FP32">
					<dim>1</dim>
					<dim>320</dim>
					<dim>35</dim>
					<dim>35</dim>
				</port>
			</output>
		</layer>
		<layer id="137" name="StatefulPartitionedCall/functional_1/block35_2/add" type="Add" version="opset1">
			<input>
				<port id="0">
					<dim>1</dim>
					<dim>320</dim>
					<dim>35</dim>
					<dim>35</dim>
				</port>
				<port id="1">
					<dim>1</dim>
					<dim>320</dim>
					<dim>35</dim>
					<dim>35</dim>
				</port>
			</input>
			<output>
				<port id="2" precision="FP32">
					<dim>1</dim>
					<dim>320</dim>
					<dim>35</dim>
					<dim>35</dim>
				</port>
			</output>
		</layer>
		<layer id="138" name="StatefulPartitionedCall/functional_1/block35_2_ac/Relu" type="ReLU" version="opset1">
			<input>
				<port id="0">
					<dim>1</dim>
					<dim>320</dim>
					<dim>35</dim>
					<dim>35</dim>
				</port>
			</input>
			<output>
				<port id="1" precision="FP32">
					<dim>1</dim>
					<dim>320</dim>
					<dim>35</dim>
					<dim>35</dim>
				</port>
			</output>
		</layer>
		<layer id="139" name="StatefulPartitionedCall/functional_1/batch_normalization_24/FusedBatchNormV3/mean/Fused_Mul_4675746759_const" type="Const" version="opset1">
			<data element_type="f32" offset="2743680" shape="32,320,1,1" size="40960"/>
			<output>
				<port id="1" precision="FP32">
					<dim>32</dim>
					<dim>320</dim>
					<dim>1</dim>
					<dim>1</dim>
				</port>
			</output>
		</layer>
		<layer id="140" name="StatefulPartitionedCall/functional_1/conv2d_24/Conv2D" type="Convolution" version="opset1">
			<data auto_pad="same_upper" dilations="1,1" output_padding="0,0" pads_begin="0,0" pads_end="0,0" strides="1,1"/>
			<input>
				<port id="0">
					<dim>1</dim>
					<dim>320</dim>
					<dim>35</dim>
					<dim>35</dim>
				</port>
				<port id="1">
					<dim>32</dim>
					<dim>320</dim>
					<dim>1</dim>
					<dim>1</dim>
				</port>
			</input>
			<output>
				<port id="2" precision="FP32">
					<dim>1</dim>
					<dim>32</dim>
					<dim>35</dim>
					<dim>35</dim>
				</port>
			</output>
		</layer>
		<layer id="141" name="data_add_4297242977/copy_const" type="Const" version="opset1">
			<data element_type="f32" offset="2784640" shape="1,32,1,1" size="128"/>
			<output>
				<port id="1" precision="FP32">
					<dim>1</dim>
					<dim>32</dim>
					<dim>1</dim>
					<dim>1</dim>
				</port>
			</output>
		</layer>
		<layer id="142" name="StatefulPartitionedCall/functional_1/batch_normalization_24/FusedBatchNormV3/variance/Fused_Add_" type="Add" version="opset1">
			<input>
				<port id="0">
					<dim>1</dim>
					<dim>32</dim>
					<dim>35</dim>
					<dim>35</dim>
				</port>
				<port id="1">
					<dim>1</dim>
					<dim>32</dim>
					<dim>1</dim>
					<dim>1</dim>
				</port>
			</input>
			<output>
				<port id="2" precision="FP32">
					<dim>1</dim>
					<dim>32</dim>
					<dim>35</dim>
					<dim>35</dim>
				</port>
			</output>
		</layer>
		<layer id="143" name="StatefulPartitionedCall/functional_1/activation_24/Relu" type="ReLU" version="opset1">
			<input>
				<port id="0">
					<dim>1</dim>
					<dim>32</dim>
					<dim>35</dim>
					<dim>35</dim>
				</port>
			</input>
			<output>
				<port id="1" precision="FP32">
					<dim>1</dim>
					<dim>32</dim>
					<dim>35</dim>
					<dim>35</dim>
				</port>
			</output>
		</layer>
		<layer id="144" name="StatefulPartitionedCall/functional_1/batch_normalization_25/FusedBatchNormV3/mean/Fused_Mul_4674946751_const" type="Const" version="opset1">
			<data element_type="f32" offset="2784768" shape="32,320,1,1" size="40960"/>
			<output>
				<port id="1" precision="FP32">
					<dim>32</dim>
					<dim>320</dim>
					<dim>1</dim>
					<dim>1</dim>
				</port>
			</output>
		</layer>
		<layer id="145" name="StatefulPartitionedCall/functional_1/conv2d_25/Conv2D" type="Convolution" version="opset1">
			<data auto_pad="same_upper" dilations="1,1" output_padding="0,0" pads_begin="0,0" pads_end="0,0" strides="1,1"/>
			<input>
				<port id="0">
					<dim>1</dim>
					<dim>320</dim>
					<dim>35</dim>
					<dim>35</dim>
				</port>
				<port id="1">
					<dim>32</dim>
					<dim>320</dim>
					<dim>1</dim>
					<dim>1</dim>
				</port>
			</input>
			<output>
				<port id="2" precision="FP32">
					<dim>1</dim>
					<dim>32</dim>
					<dim>35</dim>
					<dim>35</dim>
				</port>
			</output>
		</layer>
		<layer id="146" name="data_add_4295642961/copy_const" type="Const" version="opset1">
			<data element_type="f32" offset="2825728" shape="1,32,1,1" size="128"/>
			<output>
				<port id="1" precision="FP32">
					<dim>1</dim>
					<dim>32</dim>
					<dim>1</dim>
					<dim>1</dim>
				</port>
			</output>
		</layer>
		<layer id="147" name="StatefulPartitionedCall/functional_1/batch_normalization_25/FusedBatchNormV3/variance/Fused_Add_" type="Add" version="opset1">
			<input>
				<port id="0">
					<dim>1</dim>
					<dim>32</dim>
					<dim>35</dim>
					<dim>35</dim>
				</port>
				<port id="1">
					<dim>1</dim>
					<dim>32</dim>
					<dim>1</dim>
					<dim>1</dim>
				</port>
			</input>
			<output>
				<port id="2" precision="FP32">
					<dim>1</dim>
					<dim>32</dim>
					<dim>35</dim>
					<dim>35</dim>
				</port>
			</output>
		</layer>
		<layer id="148" name="StatefulPartitionedCall/functional_1/activation_25/Relu" type="ReLU" version="opset1">
			<input>
				<port id="0">
					<dim>1</dim>
					<dim>32</dim>
					<dim>35</dim>
					<dim>35</dim>
				</port>
			</input>
			<output>
				<port id="1" precision="FP32">
					<dim>1</dim>
					<dim>32</dim>
					<dim>35</dim>
					<dim>35</dim>
				</port>
			</output>
		</layer>
		<layer id="149" name="StatefulPartitionedCall/functional_1/batch_normalization_26/FusedBatchNormV3/mean/Fused_Mul_4675346755_const" type="Const" version="opset1">
			<data element_type="f32" offset="2825856" shape="32,32,3,3" size="36864"/>
			<output>
				<port id="1" precision="FP32">
					<dim>32</dim>
					<dim>32</dim>
					<dim>3</dim>
					<dim>3</dim>
				</port>
			</output>
		</layer>
		<layer id="150" name="StatefulPartitionedCall/functional_1/conv2d_26/Conv2D" type="Convolution" version="opset1">
			<data auto_pad="same_upper" dilations="1,1" output_padding="0,0" pads_begin="0,0" pads_end="0,0" strides="1,1"/>
			<input>
				<port id="0">
					<dim>1</dim>
					<dim>32</dim>
					<dim>35</dim>
					<dim>35</dim>
				</port>
				<port id="1">
					<dim>32</dim>
					<dim>32</dim>
					<dim>3</dim>
					<dim>3</dim>
				</port>
			</input>
			<output>
				<port id="2" precision="FP32">
					<dim>1</dim>
					<dim>32</dim>
					<dim>35</dim>
					<dim>35</dim>
				</port>
			</output>
		</layer>
		<layer id="151" name="data_add_4296442969/copy_const" type="Const" version="opset1">
			<data element_type="f32" offset="2862720" shape="1,32,1,1" size="128"/>
			<output>
				<port id="1" precision="FP32">
					<dim>1</dim>
					<dim>32</dim>
					<dim>1</dim>
					<dim>1</dim>
				</port>
			</output>
		</layer>
		<layer id="152" name="StatefulPartitionedCall/functional_1/batch_normalization_26/FusedBatchNormV3/variance/Fused_Add_" type="Add" version="opset1">
			<input>
				<port id="0">
					<dim>1</dim>
					<dim>32</dim>
					<dim>35</dim>
					<dim>35</dim>
				</port>
				<port id="1">
					<dim>1</dim>
					<dim>32</dim>
					<dim>1</dim>
					<dim>1</dim>
				</port>
			</input>
			<output>
				<port id="2" precision="FP32">
					<dim>1</dim>
					<dim>32</dim>
					<dim>35</dim>
					<dim>35</dim>
				</port>
			</output>
		</layer>
		<layer id="153" name="StatefulPartitionedCall/functional_1/activation_26/Relu" type="ReLU" version="opset1">
			<input>
				<port id="0">
					<dim>1</dim>
					<dim>32</dim>
					<dim>35</dim>
					<dim>35</dim>
				</port>
			</input>
			<output>
				<port id="1" precision="FP32">
					<dim>1</dim>
					<dim>32</dim>
					<dim>35</dim>
					<dim>35</dim>
				</port>
			</output>
		</layer>
		<layer id="154" name="StatefulPartitionedCall/functional_1/batch_normalization_27/FusedBatchNormV3/mean/Fused_Mul_4673746739_const" type="Const" version="opset1">
			<data element_type="f32" offset="2862848" shape="32,320,1,1" size="40960"/>
			<output>
				<port id="1" precision="FP32">
					<dim>32</dim>
					<dim>320</dim>
					<dim>1</dim>
					<dim>1</dim>
				</port>
			</output>
		</layer>
		<layer id="155" name="StatefulPartitionedCall/functional_1/conv2d_27/Conv2D" type="Convolution" version="opset1">
			<data auto_pad="same_upper" dilations="1,1" output_padding="0,0" pads_begin="0,0" pads_end="0,0" strides="1,1"/>
			<input>
				<port id="0">
					<dim>1</dim>
					<dim>320</dim>
					<dim>35</dim>
					<dim>35</dim>
				</port>
				<port id="1">
					<dim>32</dim>
					<dim>320</dim>
					<dim>1</dim>
					<dim>1</dim>
				</port>
			</input>
			<output>
				<port id="2" precision="FP32">
					<dim>1</dim>
					<dim>32</dim>
					<dim>35</dim>
					<dim>35</dim>
				</port>
			</output>
		</layer>
		<layer id="156" name="data_add_4293242937/copy_const" type="Const" version="opset1">
			<data element_type="f32" offset="2903808" shape="1,32,1,1" size="128"/>
			<output>
				<port id="1" precision="FP32">
					<dim>1</dim>
					<dim>32</dim>
					<dim>1</dim>
					<dim>1</dim>
				</port>
			</output>
		</layer>
		<layer id="157" name="StatefulPartitionedCall/functional_1/batch_normalization_27/FusedBatchNormV3/variance/Fused_Add_" type="Add" version="opset1">
			<input>
				<port id="0">
					<dim>1</dim>
					<dim>32</dim>
					<dim>35</dim>
					<dim>35</dim>
				</port>
				<port id="1">
					<dim>1</dim>
					<dim>32</dim>
					<dim>1</dim>
					<dim>1</dim>
				</port>
			</input>
			<output>
				<port id="2" precision="FP32">
					<dim>1</dim>
					<dim>32</dim>
					<dim>35</dim>
					<dim>35</dim>
				</port>
			</output>
		</layer>
		<layer id="158" name="StatefulPartitionedCall/functional_1/activation_27/Relu" type="ReLU" version="opset1">
			<input>
				<port id="0">
					<dim>1</dim>
					<dim>32</dim>
					<dim>35</dim>
					<dim>35</dim>
				</port>
			</input>
			<output>
				<port id="1" precision="FP32">
					<dim>1</dim>
					<dim>32</dim>
					<dim>35</dim>
					<dim>35</dim>
				</port>
			</output>
		</layer>
		<layer id="159" name="StatefulPartitionedCall/functional_1/batch_normalization_28/FusedBatchNormV3/mean/Fused_Mul_4674146743_const" type="Const" version="opset1">
			<data element_type="f32" offset="2903936" shape="48,32,3,3" size="55296"/>
			<output>
				<port id="1" precision="FP32">
					<dim>48</dim>
					<dim>32</dim>
					<dim>3</dim>
					<dim>3</dim>
				</port>
			</output>
		</layer>
		<layer id="160" name="StatefulPartitionedCall/functional_1/conv2d_28/Conv2D" type="Convolution" version="opset1">
			<data auto_pad="same_upper" dilations="1,1" output_padding="0,0" pads_begin="0,0" pads_end="0,0" strides="1,1"/>
			<input>
				<port id="0">
					<dim>1</dim>
					<dim>32</dim>
					<dim>35</dim>
					<dim>35</dim>
				</port>
				<port id="1">
					<dim>48</dim>
					<dim>32</dim>
					<dim>3</dim>
					<dim>3</dim>
				</port>
			</input>
			<output>
				<port id="2" precision="FP32">
					<dim>1</dim>
					<dim>48</dim>
					<dim>35</dim>
					<dim>35</dim>
				</port>
			</output>
		</layer>
		<layer id="161" name="data_add_4294042945/copy_const" type="Const" version="opset1">
			<data element_type="f32" offset="2959232" shape="1,48,1,1" size="192"/>
			<output>
				<port id="1" precision="FP32">
					<dim>1</dim>
					<dim>48</dim>
					<dim>1</dim>
					<dim>1</dim>
				</port>
			</output>
		</layer>
		<layer id="162" name="StatefulPartitionedCall/functional_1/batch_normalization_28/FusedBatchNormV3/variance/Fused_Add_" type="Add" version="opset1">
			<input>
				<port id="0">
					<dim>1</dim>
					<dim>48</dim>
					<dim>35</dim>
					<dim>35</dim>
				</port>
				<port id="1">
					<dim>1</dim>
					<dim>48</dim>
					<dim>1</dim>
					<dim>1</dim>
				</port>
			</input>
			<output>
				<port id="2" precision="FP32">
					<dim>1</dim>
					<dim>48</dim>
					<dim>35</dim>
					<dim>35</dim>
				</port>
			</output>
		</layer>
		<layer id="163" name="StatefulPartitionedCall/functional_1/activation_28/Relu" type="ReLU" version="opset1">
			<input>
				<port id="0">
					<dim>1</dim>
					<dim>48</dim>
					<dim>35</dim>
					<dim>35</dim>
				</port>
			</input>
			<output>
				<port id="1" precision="FP32">
					<dim>1</dim>
					<dim>48</dim>
					<dim>35</dim>
					<dim>35</dim>
				</port>
			</output>
		</layer>
		<layer id="164" name="StatefulPartitionedCall/functional_1/batch_normalization_29/FusedBatchNormV3/mean/Fused_Mul_4674546747_const" type="Const" version="opset1">
			<data element_type="f32" offset="2959424" shape="64,48,3,3" size="110592"/>
			<output>
				<port id="1" precision="FP32">
					<dim>64</dim>
					<dim>48</dim>
					<dim>3</dim>
					<dim>3</dim>
				</port>
			</output>
		</layer>
		<layer id="165" name="StatefulPartitionedCall/functional_1/conv2d_29/Conv2D" type="Convolution" version="opset1">
			<data auto_pad="same_upper" dilations="1,1" output_padding="0,0" pads_begin="0,0" pads_end="0,0" strides="1,1"/>
			<input>
				<port id="0">
					<dim>1</dim>
					<dim>48</dim>
					<dim>35</dim>
					<dim>35</dim>
				</port>
				<port id="1">
					<dim>64</dim>
					<dim>48</dim>
					<dim>3</dim>
					<dim>3</dim>
				</port>
			</input>
			<output>
				<port id="2" precision="FP32">
					<dim>1</dim>
					<dim>64</dim>
					<dim>35</dim>
					<dim>35</dim>
				</port>
			</output>
		</layer>
		<layer id="166" name="data_add_4294842953/copy_const" type="Const" version="opset1">
			<data element_type="f32" offset="3070016" shape="1,64,1,1" size="256"/>
			<output>
				<port id="1" precision="FP32">
					<dim>1</dim>
					<dim>64</dim>
					<dim>1</dim>
					<dim>1</dim>
				</port>
			</output>
		</layer>
		<layer id="167" name="StatefulPartitionedCall/functional_1/batch_normalization_29/FusedBatchNormV3/variance/Fused_Add_" type="Add" version="opset1">
			<input>
				<port id="0">
					<dim>1</dim>
					<dim>64</dim>
					<dim>35</dim>
					<dim>35</dim>
				</port>
				<port id="1">
					<dim>1</dim>
					<dim>64</dim>
					<dim>1</dim>
					<dim>1</dim>
				</port>
			</input>
			<output>
				<port id="2" precision="FP32">
					<dim>1</dim>
					<dim>64</dim>
					<dim>35</dim>
					<dim>35</dim>
				</port>
			</output>
		</layer>
		<layer id="168" name="StatefulPartitionedCall/functional_1/activation_29/Relu" type="ReLU" version="opset1">
			<input>
				<port id="0">
					<dim>1</dim>
					<dim>64</dim>
					<dim>35</dim>
					<dim>35</dim>
				</port>
			</input>
			<output>
				<port id="1" precision="FP32">
					<dim>1</dim>
					<dim>64</dim>
					<dim>35</dim>
					<dim>35</dim>
				</port>
			</output>
		</layer>
		<layer id="169" name="StatefulPartitionedCall/functional_1/block35_3_mixed/concat" type="Concat" version="opset1">
			<data axis="1"/>
			<input>
				<port id="0">
					<dim>1</dim>
					<dim>32</dim>
					<dim>35</dim>
					<dim>35</dim>
				</port>
				<port id="1">
					<dim>1</dim>
					<dim>32</dim>
					<dim>35</dim>
					<dim>35</dim>
				</port>
				<port id="2">
					<dim>1</dim>
					<dim>64</dim>
					<dim>35</dim>
					<dim>35</dim>
				</port>
			</input>
			<output>
				<port id="3" precision="FP32">
					<dim>1</dim>
					<dim>128</dim>
					<dim>35</dim>
					<dim>35</dim>
				</port>
			</output>
		</layer>
		<layer id="170" name="StatefulPartitionedCall/functional_1/block35_3/mul/Fused_Mul_4676146763_const" type="Const" version="opset1">
			<data element_type="f32" offset="3070272" shape="320,128,1,1" size="163840"/>
			<output>
				<port id="1" precision="FP32">
					<dim>320</dim>
					<dim>128</dim>
					<dim>1</dim>
					<dim>1</dim>
				</port>
			</output>
		</layer>
		<layer id="171" name="StatefulPartitionedCall/functional_1/block35_3_conv/Conv2D" type="Convolution" version="opset1">
			<data auto_pad="same_upper" dilations="1,1" output_padding="0,0" pads_begin="0,0" pads_end="0,0" strides="1,1"/>
			<input>
				<port id="0">
					<dim>1</dim>
					<dim>128</dim>
					<dim>35</dim>
					<dim>35</dim>
				</port>
				<port id="1">
					<dim>320</dim>
					<dim>128</dim>
					<dim>1</dim>
					<dim>1</dim>
				</port>
			</input>
			<output>
				<port id="2" precision="FP32">
					<dim>1</dim>
					<dim>320</dim>
					<dim>35</dim>
					<dim>35</dim>
				</port>
			</output>
		</layer>
		<layer id="172" name="data_add_4298042985/copy_const" type="Const" version="opset1">
			<data element_type="f32" offset="3234112" shape="1,320,1,1" size="1280"/>
			<output>
				<port id="1" precision="FP32">
					<dim>1</dim>
					<dim>320</dim>
					<dim>1</dim>
					<dim>1</dim>
				</port>
			</output>
		</layer>
		<layer id="173" name="StatefulPartitionedCall/functional_1/block35_3_conv/BiasAdd/Add/Fused_Add_" type="Add" version="opset1">
			<input>
				<port id="0">
					<dim>1</dim>
					<dim>320</dim>
					<dim>35</dim>
					<dim>35</dim>
				</port>
				<port id="1">
					<dim>1</dim>
					<dim>320</dim>
					<dim>1</dim>
					<dim>1</dim>
				</port>
			</input>
			<output>
				<port id="2" precision="FP32">
					<dim>1</dim>
					<dim>320</dim>
					<dim>35</dim>
					<dim>35</dim>
				</port>
			</output>
		</layer>
		<layer id="174" name="StatefulPartitionedCall/functional_1/block35_3/add" type="Add" version="opset1">
			<input>
				<port id="0">
					<dim>1</dim>
					<dim>320</dim>
					<dim>35</dim>
					<dim>35</dim>
				</port>
				<port id="1">
					<dim>1</dim>
					<dim>320</dim>
					<dim>35</dim>
					<dim>35</dim>
				</port>
			</input>
			<output>
				<port id="2" precision="FP32">
					<dim>1</dim>
					<dim>320</dim>
					<dim>35</dim>
					<dim>35</dim>
				</port>
			</output>
		</layer>
		<layer id="175" name="StatefulPartitionedCall/functional_1/block35_3_ac/Relu" type="ReLU" version="opset1">
			<input>
				<port id="0">
					<dim>1</dim>
					<dim>320</dim>
					<dim>35</dim>
					<dim>35</dim>
				</port>
			</input>
			<output>
				<port id="1" precision="FP32">
					<dim>1</dim>
					<dim>320</dim>
					<dim>35</dim>
					<dim>35</dim>
				</port>
			</output>
		</layer>
		<layer id="176" name="StatefulPartitionedCall/functional_1/batch_normalization_30/FusedBatchNormV3/mean/Fused_Mul_4678546787_const" type="Const" version="opset1">
			<data element_type="f32" offset="3235392" shape="32,320,1,1" size="40960"/>
			<output>
				<port id="1" precision="FP32">
					<dim>32</dim>
					<dim>320</dim>
					<dim>1</dim>
					<dim>1</dim>
				</port>
			</output>
		</layer>
		<layer id="177" name="StatefulPartitionedCall/functional_1/conv2d_30/Conv2D" type="Convolution" version="opset1">
			<data auto_pad="same_upper" dilations="1,1" output_padding="0,0" pads_begin="0,0" pads_end="0,0" strides="1,1"/>
			<input>
				<port id="0">
					<dim>1</dim>
					<dim>320</dim>
					<dim>35</dim>
					<dim>35</dim>
				</port>
				<port id="1">
					<dim>32</dim>
					<dim>320</dim>
					<dim>1</dim>
					<dim>1</dim>
				</port>
			</input>
			<output>
				<port id="2" precision="FP32">
					<dim>1</dim>
					<dim>32</dim>
					<dim>35</dim>
					<dim>35</dim>
				</port>
			</output>
		</layer>
		<layer id="178" name="data_add_4302843033/copy_const" type="Const" version="opset1">
			<data element_type="f32" offset="3276352" shape="1,32,1,1" size="128"/>
			<output>
				<port id="1" precision="FP32">
					<dim>1</dim>
					<dim>32</dim>
					<dim>1</dim>
					<dim>1</dim>
				</port>
			</output>
		</layer>
		<layer id="179" name="StatefulPartitionedCall/functional_1/batch_normalization_30/FusedBatchNormV3/variance/Fused_Add_" type="Add" version="opset1">
			<input>
				<port id="0">
					<dim>1</dim>
					<dim>32</dim>
					<dim>35</dim>
					<dim>35</dim>
				</port>
				<port id="1">
					<dim>1</dim>
					<dim>32</dim>
					<dim>1</dim>
					<dim>1</dim>
				</port>
			</input>
			<output>
				<port id="2" precision="FP32">
					<dim>1</dim>
					<dim>32</dim>
					<dim>35</dim>
					<dim>35</dim>
				</port>
			</output>
		</layer>
		<layer id="180" name="StatefulPartitionedCall/functional_1/activation_30/Relu" type="ReLU" version="opset1">
			<input>
				<port id="0">
					<dim>1</dim>
					<dim>32</dim>
					<dim>35</dim>
					<dim>35</dim>
				</port>
			</input>
			<output>
				<port id="1" precision="FP32">
					<dim>1</dim>
					<dim>32</dim>
					<dim>35</dim>
					<dim>35</dim>
				</port>
			</output>
		</layer>
		<layer id="181" name="StatefulPartitionedCall/functional_1/batch_normalization_31/FusedBatchNormV3/mean/Fused_Mul_4677746779_const" type="Const" version="opset1">
			<data element_type="f32" offset="3276480" shape="32,320,1,1" size="40960"/>
			<output>
				<port id="1" precision="FP32">
					<dim>32</dim>
					<dim>320</dim>
					<dim>1</dim>
					<dim>1</dim>
				</port>
			</output>
		</layer>
		<layer id="182" name="StatefulPartitionedCall/functional_1/conv2d_31/Conv2D" type="Convolution" version="opset1">
			<data auto_pad="same_upper" dilations="1,1" output_padding="0,0" pads_begin="0,0" pads_end="0,0" strides="1,1"/>
			<input>
				<port id="0">
					<dim>1</dim>
					<dim>320</dim>
					<dim>35</dim>
					<dim>35</dim>
				</port>
				<port id="1">
					<dim>32</dim>
					<dim>320</dim>
					<dim>1</dim>
					<dim>1</dim>
				</port>
			</input>
			<output>
				<port id="2" precision="FP32">
					<dim>1</dim>
					<dim>32</dim>
					<dim>35</dim>
					<dim>35</dim>
				</port>
			</output>
		</layer>
		<layer id="183" name="data_add_4301243017/copy_const" type="Const" version="opset1">
			<data element_type="f32" offset="3317440" shape="1,32,1,1" size="128"/>
			<output>
				<port id="1" precision="FP32">
					<dim>1</dim>
					<dim>32</dim>
					<dim>1</dim>
					<dim>1</dim>
				</port>
			</output>
		</layer>
		<layer id="184" name="StatefulPartitionedCall/functional_1/batch_normalization_31/FusedBatchNormV3/variance/Fused_Add_" type="Add" version="opset1">
			<input>
				<port id="0">
					<dim>1</dim>
					<dim>32</dim>
					<dim>35</dim>
					<dim>35</dim>
				</port>
				<port id="1">
					<dim>1</dim>
					<dim>32</dim>
					<dim>1</dim>
					<dim>1</dim>
				</port>
			</input>
			<output>
				<port id="2" precision="FP32">
					<dim>1</dim>
					<dim>32</dim>
					<dim>35</dim>
					<dim>35</dim>
				</port>
			</output>
		</layer>
		<layer id="185" name="StatefulPartitionedCall/functional_1/activation_31/Relu" type="ReLU" version="opset1">
			<input>
				<port id="0">
					<dim>1</dim>
					<dim>32</dim>
					<dim>35</dim>
					<dim>35</dim>
				</port>
			</input>
			<output>
				<port id="1" precision="FP32">
					<dim>1</dim>
					<dim>32</dim>
					<dim>35</dim>
					<dim>35</dim>
				</port>
			</output>
		</layer>
		<layer id="186" name="StatefulPartitionedCall/functional_1/batch_normalization_32/FusedBatchNormV3/mean/Fused_Mul_4678146783_const" type="Const" version="opset1">
			<data element_type="f32" offset="3317568" shape="32,32,3,3" size="36864"/>
			<output>
				<port id="1" precision="FP32">
					<dim>32</dim>
					<dim>32</dim>
					<dim>3</dim>
					<dim>3</dim>
				</port>
			</output>
		</layer>
		<layer id="187" name="StatefulPartitionedCall/functional_1/conv2d_32/Conv2D" type="Convolution" version="opset1">
			<data auto_pad="same_upper" dilations="1,1" output_padding="0,0" pads_begin="0,0" pads_end="0,0" strides="1,1"/>
			<input>
				<port id="0">
					<dim>1</dim>
					<dim>32</dim>
					<dim>35</dim>
					<dim>35</dim>
				</port>
				<port id="1">
					<dim>32</dim>
					<dim>32</dim>
					<dim>3</dim>
					<dim>3</dim>
				</port>
			</input>
			<output>
				<port id="2" precision="FP32">
					<dim>1</dim>
					<dim>32</dim>
					<dim>35</dim>
					<dim>35</dim>
				</port>
			</output>
		</layer>
		<layer id="188" name="data_add_4302043025/copy_const" type="Const" version="opset1">
			<data element_type="f32" offset="3354432" shape="1,32,1,1" size="128"/>
			<output>
				<port id="1" precision="FP32">
					<dim>1</dim>
					<dim>32</dim>
					<dim>1</dim>
					<dim>1</dim>
				</port>
			</output>
		</layer>
		<layer id="189" name="StatefulPartitionedCall/functional_1/batch_normalization_32/FusedBatchNormV3/variance/Fused_Add_" type="Add" version="opset1">
			<input>
				<port id="0">
					<dim>1</dim>
					<dim>32</dim>
					<dim>35</dim>
					<dim>35</dim>
				</port>
				<port id="1">
					<dim>1</dim>
					<dim>32</dim>
					<dim>1</dim>
					<dim>1</dim>
				</port>
			</input>
			<output>
				<port id="2" precision="FP32">
					<dim>1</dim>
					<dim>32</dim>
					<dim>35</dim>
					<dim>35</dim>
				</port>
			</output>
		</layer>
		<layer id="190" name="StatefulPartitionedCall/functional_1/activation_32/Relu" type="ReLU" version="opset1">
			<input>
				<port id="0">
					<dim>1</dim>
					<dim>32</dim>
					<dim>35</dim>
					<dim>35</dim>
				</port>
			</input>
			<output>
				<port id="1" precision="FP32">
					<dim>1</dim>
					<dim>32</dim>
					<dim>35</dim>
					<dim>35</dim>
				</port>
			</output>
		</layer>
		<layer id="191" name="StatefulPartitionedCall/functional_1/batch_normalization_33/FusedBatchNormV3/mean/Fused_Mul_4676546767_const" type="Const" version="opset1">
			<data element_type="f32" offset="3354560" shape="32,320,1,1" size="40960"/>
			<output>
				<port id="1" precision="FP32">
					<dim>32</dim>
					<dim>320</dim>
					<dim>1</dim>
					<dim>1</dim>
				</port>
			</output>
		</layer>
		<layer id="192" name="StatefulPartitionedCall/functional_1/conv2d_33/Conv2D" type="Convolution" version="opset1">
			<data auto_pad="same_upper" dilations="1,1" output_padding="0,0" pads_begin="0,0" pads_end="0,0" strides="1,1"/>
			<input>
				<port id="0">
					<dim>1</dim>
					<dim>320</dim>
					<dim>35</dim>
					<dim>35</dim>
				</port>
				<port id="1">
					<dim>32</dim>
					<dim>320</dim>
					<dim>1</dim>
					<dim>1</dim>
				</port>
			</input>
			<output>
				<port id="2" precision="FP32">
					<dim>1</dim>
					<dim>32</dim>
					<dim>35</dim>
					<dim>35</dim>
				</port>
			</output>
		</layer>
		<layer id="193" name="data_add_4298842993/copy_const" type="Const" version="opset1">
			<data element_type="f32" offset="3395520" shape="1,32,1,1" size="128"/>
			<output>
				<port id="1" precision="FP32">
					<dim>1</dim>
					<dim>32</dim>
					<dim>1</dim>
					<dim>1</dim>
				</port>
			</output>
		</layer>
		<layer id="194" name="StatefulPartitionedCall/functional_1/batch_normalization_33/FusedBatchNormV3/variance/Fused_Add_" type="Add" version="opset1">
			<input>
				<port id="0">
					<dim>1</dim>
					<dim>32</dim>
					<dim>35</dim>
					<dim>35</dim>
				</port>
				<port id="1">
					<dim>1</dim>
					<dim>32</dim>
					<dim>1</dim>
					<dim>1</dim>
				</port>
			</input>
			<output>
				<port id="2" precision="FP32">
					<dim>1</dim>
					<dim>32</dim>
					<dim>35</dim>
					<dim>35</dim>
				</port>
			</output>
		</layer>
		<layer id="195" name="StatefulPartitionedCall/functional_1/activation_33/Relu" type="ReLU" version="opset1">
			<input>
				<port id="0">
					<dim>1</dim>
					<dim>32</dim>
					<dim>35</dim>
					<dim>35</dim>
				</port>
			</input>
			<output>
				<port id="1" precision="FP32">
					<dim>1</dim>
					<dim>32</dim>
					<dim>35</dim>
					<dim>35</dim>
				</port>
			</output>
		</layer>
		<layer id="196" name="StatefulPartitionedCall/functional_1/batch_normalization_34/FusedBatchNormV3/mean/Fused_Mul_4676946771_const" type="Const" version="opset1">
			<data element_type="f32" offset="3395648" shape="48,32,3,3" size="55296"/>
			<output>
				<port id="1" precision="FP32">
					<dim>48</dim>
					<dim>32</dim>
					<dim>3</dim>
					<dim>3</dim>
				</port>
			</output>
		</layer>
		<layer id="197" name="StatefulPartitionedCall/functional_1/conv2d_34/Conv2D" type="Convolution" version="opset1">
			<data auto_pad="same_upper" dilations="1,1" output_padding="0,0" pads_begin="0,0" pads_end="0,0" strides="1,1"/>
			<input>
				<port id="0">
					<dim>1</dim>
					<dim>32</dim>
					<dim>35</dim>
					<dim>35</dim>
				</port>
				<port id="1">
					<dim>48</dim>
					<dim>32</dim>
					<dim>3</dim>
					<dim>3</dim>
				</port>
			</input>
			<output>
				<port id="2" precision="FP32">
					<dim>1</dim>
					<dim>48</dim>
					<dim>35</dim>
					<dim>35</dim>
				</port>
			</output>
		</layer>
		<layer id="198" name="data_add_4299643001/copy_const" type="Const" version="opset1">
			<data element_type="f32" offset="3450944" shape="1,48,1,1" size="192"/>
			<output>
				<port id="1" precision="FP32">
					<dim>1</dim>
					<dim>48</dim>
					<dim>1</dim>
					<dim>1</dim>
				</port>
			</output>
		</layer>
		<layer id="199" name="StatefulPartitionedCall/functional_1/batch_normalization_34/FusedBatchNormV3/variance/Fused_Add_" type="Add" version="opset1">
			<input>
				<port id="0">
					<dim>1</dim>
					<dim>48</dim>
					<dim>35</dim>
					<dim>35</dim>
				</port>
				<port id="1">
					<dim>1</dim>
					<dim>48</dim>
					<dim>1</dim>
					<dim>1</dim>
				</port>
			</input>
			<output>
				<port id="2" precision="FP32">
					<dim>1</dim>
					<dim>48</dim>
					<dim>35</dim>
					<dim>35</dim>
				</port>
			</output>
		</layer>
		<layer id="200" name="StatefulPartitionedCall/functional_1/activation_34/Relu" type="ReLU" version="opset1">
			<input>
				<port id="0">
					<dim>1</dim>
					<dim>48</dim>
					<dim>35</dim>
					<dim>35</dim>
				</port>
			</input>
			<output>
				<port id="1" precision="FP32">
					<dim>1</dim>
					<dim>48</dim>
					<dim>35</dim>
					<dim>35</dim>
				</port>
			</output>
		</layer>
		<layer id="201" name="StatefulPartitionedCall/functional_1/batch_normalization_35/FusedBatchNormV3/mean/Fused_Mul_4677346775_const" type="Const" version="opset1">
			<data element_type="f32" offset="3451136" shape="64,48,3,3" size="110592"/>
			<output>
				<port id="1" precision="FP32">
					<dim>64</dim>
					<dim>48</dim>
					<dim>3</dim>
					<dim>3</dim>
				</port>
			</output>
		</layer>
		<layer id="202" name="StatefulPartitionedCall/functional_1/conv2d_35/Conv2D" type="Convolution" version="opset1">
			<data auto_pad="same_upper" dilations="1,1" output_padding="0,0" pads_begin="0,0" pads_end="0,0" strides="1,1"/>
			<input>
				<port id="0">
					<dim>1</dim>
					<dim>48</dim>
					<dim>35</dim>
					<dim>35</dim>
				</port>
				<port id="1">
					<dim>64</dim>
					<dim>48</dim>
					<dim>3</dim>
					<dim>3</dim>
				</port>
			</input>
			<output>
				<port id="2" precision="FP32">
					<dim>1</dim>
					<dim>64</dim>
					<dim>35</dim>
					<dim>35</dim>
				</port>
			</output>
		</layer>
		<layer id="203" name="data_add_4300443009/copy_const" type="Const" version="opset1">
			<data element_type="f32" offset="3561728" shape="1,64,1,1" size="256"/>
			<output>
				<port id="1" precision="FP32">
					<dim>1</dim>
					<dim>64</dim>
					<dim>1</dim>
					<dim>1</dim>
				</port>
			</output>
		</layer>
		<layer id="204" name="StatefulPartitionedCall/functional_1/batch_normalization_35/FusedBatchNormV3/variance/Fused_Add_" type="Add" version="opset1">
			<input>
				<port id="0">
					<dim>1</dim>
					<dim>64</dim>
					<dim>35</dim>
					<dim>35</dim>
				</port>
				<port id="1">
					<dim>1</dim>
					<dim>64</dim>
					<dim>1</dim>
					<dim>1</dim>
				</port>
			</input>
			<output>
				<port id="2" precision="FP32">
					<dim>1</dim>
					<dim>64</dim>
					<dim>35</dim>
					<dim>35</dim>
				</port>
			</output>
		</layer>
		<layer id="205" name="StatefulPartitionedCall/functional_1/activation_35/Relu" type="ReLU" version="opset1">
			<input>
				<port id="0">
					<dim>1</dim>
					<dim>64</dim>
					<dim>35</dim>
					<dim>35</dim>
				</port>
			</input>
			<output>
				<port id="1" precision="FP32">
					<dim>1</dim>
					<dim>64</dim>
					<dim>35</dim>
					<dim>35</dim>
				</port>
			</output>
		</layer>
		<layer id="206" name="StatefulPartitionedCall/functional_1/block35_4_mixed/concat" type="Concat" version="opset1">
			<data axis="1"/>
			<input>
				<port id="0">
					<dim>1</dim>
					<dim>32</dim>
					<dim>35</dim>
					<dim>35</dim>
				</port>
				<port id="1">
					<dim>1</dim>
					<dim>32</dim>
					<dim>35</dim>
					<dim>35</dim>
				</port>
				<port id="2">
					<dim>1</dim>
					<dim>64</dim>
					<dim>35</dim>
					<dim>35</dim>
				</port>
			</input>
			<output>
				<port id="3" precision="FP32">
					<dim>1</dim>
					<dim>128</dim>
					<dim>35</dim>
					<dim>35</dim>
				</port>
			</output>
		</layer>
		<layer id="207" name="StatefulPartitionedCall/functional_1/block35_4/mul/Fused_Mul_4678946791_const" type="Const" version="opset1">
			<data element_type="f32" offset="3561984" shape="320,128,1,1" size="163840"/>
			<output>
				<port id="1" precision="FP32">
					<dim>320</dim>
					<dim>128</dim>
					<dim>1</dim>
					<dim>1</dim>
				</port>
			</output>
		</layer>
		<layer id="208" name="StatefulPartitionedCall/functional_1/block35_4_conv/Conv2D" type="Convolution" version="opset1">
			<data auto_pad="same_upper" dilations="1,1" output_padding="0,0" pads_begin="0,0" pads_end="0,0" strides="1,1"/>
			<input>
				<port id="0">
					<dim>1</dim>
					<dim>128</dim>
					<dim>35</dim>
					<dim>35</dim>
				</port>
				<port id="1">
					<dim>320</dim>
					<dim>128</dim>
					<dim>1</dim>
					<dim>1</dim>
				</port>
			</input>
			<output>
				<port id="2" precision="FP32">
					<dim>1</dim>
					<dim>320</dim>
					<dim>35</dim>
					<dim>35</dim>
				</port>
			</output>
		</layer>
		<layer id="209" name="data_add_4303643041/copy_const" type="Const" version="opset1">
			<data element_type="f32" offset="3725824" shape="1,320,1,1" size="1280"/>
			<output>
				<port id="1" precision="FP32">
					<dim>1</dim>
					<dim>320</dim>
					<dim>1</dim>
					<dim>1</dim>
				</port>
			</output>
		</layer>
		<layer id="210" name="StatefulPartitionedCall/functional_1/block35_4_conv/BiasAdd/Add/Fused_Add_" type="Add" version="opset1">
			<input>
				<port id="0">
					<dim>1</dim>
					<dim>320</dim>
					<dim>35</dim>
					<dim>35</dim>
				</port>
				<port id="1">
					<dim>1</dim>
					<dim>320</dim>
					<dim>1</dim>
					<dim>1</dim>
				</port>
			</input>
			<output>
				<port id="2" precision="FP32">
					<dim>1</dim>
					<dim>320</dim>
					<dim>35</dim>
					<dim>35</dim>
				</port>
			</output>
		</layer>
		<layer id="211" name="StatefulPartitionedCall/functional_1/block35_4/add" type="Add" version="opset1">
			<input>
				<port id="0">
					<dim>1</dim>
					<dim>320</dim>
					<dim>35</dim>
					<dim>35</dim>
				</port>
				<port id="1">
					<dim>1</dim>
					<dim>320</dim>
					<dim>35</dim>
					<dim>35</dim>
				</port>
			</input>
			<output>
				<port id="2" precision="FP32">
					<dim>1</dim>
					<dim>320</dim>
					<dim>35</dim>
					<dim>35</dim>
				</port>
			</output>
		</layer>
		<layer id="212" name="StatefulPartitionedCall/functional_1/block35_4_ac/Relu" type="ReLU" version="opset1">
			<input>
				<port id="0">
					<dim>1</dim>
					<dim>320</dim>
					<dim>35</dim>
					<dim>35</dim>
				</port>
			</input>
			<output>
				<port id="1" precision="FP32">
					<dim>1</dim>
					<dim>320</dim>
					<dim>35</dim>
					<dim>35</dim>
				</port>
			</output>
		</layer>
		<layer id="213" name="StatefulPartitionedCall/functional_1/batch_normalization_36/FusedBatchNormV3/mean/Fused_Mul_4681346815_const" type="Const" version="opset1">
			<data element_type="f32" offset="3727104" shape="32,320,1,1" size="40960"/>
			<output>
				<port id="1" precision="FP32">
					<dim>32</dim>
					<dim>320</dim>
					<dim>1</dim>
					<dim>1</dim>
				</port>
			</output>
		</layer>
		<layer id="214" name="StatefulPartitionedCall/functional_1/conv2d_36/Conv2D" type="Convolution" version="opset1">
			<data auto_pad="same_upper" dilations="1,1" output_padding="0,0" pads_begin="0,0" pads_end="0,0" strides="1,1"/>
			<input>
				<port id="0">
					<dim>1</dim>
					<dim>320</dim>
					<dim>35</dim>
					<dim>35</dim>
				</port>
				<port id="1">
					<dim>32</dim>
					<dim>320</dim>
					<dim>1</dim>
					<dim>1</dim>
				</port>
			</input>
			<output>
				<port id="2" precision="FP32">
					<dim>1</dim>
					<dim>32</dim>
					<dim>35</dim>
					<dim>35</dim>
				</port>
			</output>
		</layer>
		<layer id="215" name="data_add_4308443089/copy_const" type="Const" version="opset1">
			<data element_type="f32" offset="3768064" shape="1,32,1,1" size="128"/>
			<output>
				<port id="1" precision="FP32">
					<dim>1</dim>
					<dim>32</dim>
					<dim>1</dim>
					<dim>1</dim>
				</port>
			</output>
		</layer>
		<layer id="216" name="StatefulPartitionedCall/functional_1/batch_normalization_36/FusedBatchNormV3/variance/Fused_Add_" type="Add" version="opset1">
			<input>
				<port id="0">
					<dim>1</dim>
					<dim>32</dim>
					<dim>35</dim>
					<dim>35</dim>
				</port>
				<port id="1">
					<dim>1</dim>
					<dim>32</dim>
					<dim>1</dim>
					<dim>1</dim>
				</port>
			</input>
			<output>
				<port id="2" precision="FP32">
					<dim>1</dim>
					<dim>32</dim>
					<dim>35</dim>
					<dim>35</dim>
				</port>
			</output>
		</layer>
		<layer id="217" name="StatefulPartitionedCall/functional_1/activation_36/Relu" type="ReLU" version="opset1">
			<input>
				<port id="0">
					<dim>1</dim>
					<dim>32</dim>
					<dim>35</dim>
					<dim>35</dim>
				</port>
			</input>
			<output>
				<port id="1" precision="FP32">
					<dim>1</dim>
					<dim>32</dim>
					<dim>35</dim>
					<dim>35</dim>
				</port>
			</output>
		</layer>
		<layer id="218" name="StatefulPartitionedCall/functional_1/batch_normalization_37/FusedBatchNormV3/mean/Fused_Mul_4680546807_const" type="Const" version="opset1">
			<data element_type="f32" offset="3768192" shape="32,320,1,1" size="40960"/>
			<output>
				<port id="1" precision="FP32">
					<dim>32</dim>
					<dim>320</dim>
					<dim>1</dim>
					<dim>1</dim>
				</port>
			</output>
		</layer>
		<layer id="219" name="StatefulPartitionedCall/functional_1/conv2d_37/Conv2D" type="Convolution" version="opset1">
			<data auto_pad="same_upper" dilations="1,1" output_padding="0,0" pads_begin="0,0" pads_end="0,0" strides="1,1"/>
			<input>
				<port id="0">
					<dim>1</dim>
					<dim>320</dim>
					<dim>35</dim>
					<dim>35</dim>
				</port>
				<port id="1">
					<dim>32</dim>
					<dim>320</dim>
					<dim>1</dim>
					<dim>1</dim>
				</port>
			</input>
			<output>
				<port id="2" precision="FP32">
					<dim>1</dim>
					<dim>32</dim>
					<dim>35</dim>
					<dim>35</dim>
				</port>
			</output>
		</layer>
		<layer id="220" name="data_add_4306843073/copy_const" type="Const" version="opset1">
			<data element_type="f32" offset="3809152" shape="1,32,1,1" size="128"/>
			<output>
				<port id="1" precision="FP32">
					<dim>1</dim>
					<dim>32</dim>
					<dim>1</dim>
					<dim>1</dim>
				</port>
			</output>
		</layer>
		<layer id="221" name="StatefulPartitionedCall/functional_1/batch_normalization_37/FusedBatchNormV3/variance/Fused_Add_" type="Add" version="opset1">
			<input>
				<port id="0">
					<dim>1</dim>
					<dim>32</dim>
					<dim>35</dim>
					<dim>35</dim>
				</port>
				<port id="1">
					<dim>1</dim>
					<dim>32</dim>
					<dim>1</dim>
					<dim>1</dim>
				</port>
			</input>
			<output>
				<port id="2" precision="FP32">
					<dim>1</dim>
					<dim>32</dim>
					<dim>35</dim>
					<dim>35</dim>
				</port>
			</output>
		</layer>
		<layer id="222" name="StatefulPartitionedCall/functional_1/activation_37/Relu" type="ReLU" version="opset1">
			<input>
				<port id="0">
					<dim>1</dim>
					<dim>32</dim>
					<dim>35</dim>
					<dim>35</dim>
				</port>
			</input>
			<output>
				<port id="1" precision="FP32">
					<dim>1</dim>
					<dim>32</dim>
					<dim>35</dim>
					<dim>35</dim>
				</port>
			</output>
		</layer>
		<layer id="223" name="StatefulPartitionedCall/functional_1/batch_normalization_38/FusedBatchNormV3/mean/Fused_Mul_4680946811_const" type="Const" version="opset1">
			<data element_type="f32" offset="3809280" shape="32,32,3,3" size="36864"/>
			<output>
				<port id="1" precision="FP32">
					<dim>32</dim>
					<dim>32</dim>
					<dim>3</dim>
					<dim>3</dim>
				</port>
			</output>
		</layer>
		<layer id="224" name="StatefulPartitionedCall/functional_1/conv2d_38/Conv2D" type="Convolution" version="opset1">
			<data auto_pad="same_upper" dilations="1,1" output_padding="0,0" pads_begin="0,0" pads_end="0,0" strides="1,1"/>
			<input>
				<port id="0">
					<dim>1</dim>
					<dim>32</dim>
					<dim>35</dim>
					<dim>35</dim>
				</port>
				<port id="1">
					<dim>32</dim>
					<dim>32</dim>
					<dim>3</dim>
					<dim>3</dim>
				</port>
			</input>
			<output>
				<port id="2" precision="FP32">
					<dim>1</dim>
					<dim>32</dim>
					<dim>35</dim>
					<dim>35</dim>
				</port>
			</output>
		</layer>
		<layer id="225" name="data_add_4307643081/copy_const" type="Const" version="opset1">
			<data element_type="f32" offset="3846144" shape="1,32,1,1" size="128"/>
			<output>
				<port id="1" precision="FP32">
					<dim>1</dim>
					<dim>32</dim>
					<dim>1</dim>
					<dim>1</dim>
				</port>
			</output>
		</layer>
		<layer id="226" name="StatefulPartitionedCall/functional_1/batch_normalization_38/FusedBatchNormV3/variance/Fused_Add_" type="Add" version="opset1">
			<input>
				<port id="0">
					<dim>1</dim>
					<dim>32</dim>
					<dim>35</dim>
					<dim>35</dim>
				</port>
				<port id="1">
					<dim>1</dim>
					<dim>32</dim>
					<dim>1</dim>
					<dim>1</dim>
				</port>
			</input>
			<output>
				<port id="2" precision="FP32">
					<dim>1</dim>
					<dim>32</dim>
					<dim>35</dim>
					<dim>35</dim>
				</port>
			</output>
		</layer>
		<layer id="227" name="StatefulPartitionedCall/functional_1/activation_38/Relu" type="ReLU" version="opset1">
			<input>
				<port id="0">
					<dim>1</dim>
					<dim>32</dim>
					<dim>35</dim>
					<dim>35</dim>
				</port>
			</input>
			<output>
				<port id="1" precision="FP32">
					<dim>1</dim>
					<dim>32</dim>
					<dim>35</dim>
					<dim>35</dim>
				</port>
			</output>
		</layer>
		<layer id="228" name="StatefulPartitionedCall/functional_1/batch_normalization_39/FusedBatchNormV3/mean/Fused_Mul_4679346795_const" type="Const" version="opset1">
			<data element_type="f32" offset="3846272" shape="32,320,1,1" size="40960"/>
			<output>
				<port id="1" precision="FP32">
					<dim>32</dim>
					<dim>320</dim>
					<dim>1</dim>
					<dim>1</dim>
				</port>
			</output>
		</layer>
		<layer id="229" name="StatefulPartitionedCall/functional_1/conv2d_39/Conv2D" type="Convolution" version="opset1">
			<data auto_pad="same_upper" dilations="1,1" output_padding="0,0" pads_begin="0,0" pads_end="0,0" strides="1,1"/>
			<input>
				<port id="0">
					<dim>1</dim>
					<dim>320</dim>
					<dim>35</dim>
					<dim>35</dim>
				</port>
				<port id="1">
					<dim>32</dim>
					<dim>320</dim>
					<dim>1</dim>
					<dim>1</dim>
				</port>
			</input>
			<output>
				<port id="2" precision="FP32">
					<dim>1</dim>
					<dim>32</dim>
					<dim>35</dim>
					<dim>35</dim>
				</port>
			</output>
		</layer>
		<layer id="230" name="data_add_4304443049/copy_const" type="Const" version="opset1">
			<data element_type="f32" offset="3887232" shape="1,32,1,1" size="128"/>
			<output>
				<port id="1" precision="FP32">
					<dim>1</dim>
					<dim>32</dim>
					<dim>1</dim>
					<dim>1</dim>
				</port>
			</output>
		</layer>
		<layer id="231" name="StatefulPartitionedCall/functional_1/batch_normalization_39/FusedBatchNormV3/variance/Fused_Add_" type="Add" version="opset1">
			<input>
				<port id="0">
					<dim>1</dim>
					<dim>32</dim>
					<dim>35</dim>
					<dim>35</dim>
				</port>
				<port id="1">
					<dim>1</dim>
					<dim>32</dim>
					<dim>1</dim>
					<dim>1</dim>
				</port>
			</input>
			<output>
				<port id="2" precision="FP32">
					<dim>1</dim>
					<dim>32</dim>
					<dim>35</dim>
					<dim>35</dim>
				</port>
			</output>
		</layer>
		<layer id="232" name="StatefulPartitionedCall/functional_1/activation_39/Relu" type="ReLU" version="opset1">
			<input>
				<port id="0">
					<dim>1</dim>
					<dim>32</dim>
					<dim>35</dim>
					<dim>35</dim>
				</port>
			</input>
			<output>
				<port id="1" precision="FP32">
					<dim>1</dim>
					<dim>32</dim>
					<dim>35</dim>
					<dim>35</dim>
				</port>
			</output>
		</layer>
		<layer id="233" name="StatefulPartitionedCall/functional_1/batch_normalization_40/FusedBatchNormV3/mean/Fused_Mul_4679746799_const" type="Const" version="opset1">
			<data element_type="f32" offset="3887360" shape="48,32,3,3" size="55296"/>
			<output>
				<port id="1" precision="FP32">
					<dim>48</dim>
					<dim>32</dim>
					<dim>3</dim>
					<dim>3</dim>
				</port>
			</output>
		</layer>
		<layer id="234" name="StatefulPartitionedCall/functional_1/conv2d_40/Conv2D" type="Convolution" version="opset1">
			<data auto_pad="same_upper" dilations="1,1" output_padding="0,0" pads_begin="0,0" pads_end="0,0" strides="1,1"/>
			<input>
				<port id="0">
					<dim>1</dim>
					<dim>32</dim>
					<dim>35</dim>
					<dim>35</dim>
				</port>
				<port id="1">
					<dim>48</dim>
					<dim>32</dim>
					<dim>3</dim>
					<dim>3</dim>
				</port>
			</input>
			<output>
				<port id="2" precision="FP32">
					<dim>1</dim>
					<dim>48</dim>
					<dim>35</dim>
					<dim>35</dim>
				</port>
			</output>
		</layer>
		<layer id="235" name="data_add_4305243057/copy_const" type="Const" version="opset1">
			<data element_type="f32" offset="3942656" shape="1,48,1,1" size="192"/>
			<output>
				<port id="1" precision="FP32">
					<dim>1</dim>
					<dim>48</dim>
					<dim>1</dim>
					<dim>1</dim>
				</port>
			</output>
		</layer>
		<layer id="236" name="StatefulPartitionedCall/functional_1/batch_normalization_40/FusedBatchNormV3/variance/Fused_Add_" type="Add" version="opset1">
			<input>
				<port id="0">
					<dim>1</dim>
					<dim>48</dim>
					<dim>35</dim>
					<dim>35</dim>
				</port>
				<port id="1">
					<dim>1</dim>
					<dim>48</dim>
					<dim>1</dim>
					<dim>1</dim>
				</port>
			</input>
			<output>
				<port id="2" precision="FP32">
					<dim>1</dim>
					<dim>48</dim>
					<dim>35</dim>
					<dim>35</dim>
				</port>
			</output>
		</layer>
		<layer id="237" name="StatefulPartitionedCall/functional_1/activation_40/Relu" type="ReLU" version="opset1">
			<input>
				<port id="0">
					<dim>1</dim>
					<dim>48</dim>
					<dim>35</dim>
					<dim>35</dim>
				</port>
			</input>
			<output>
				<port id="1" precision="FP32">
					<dim>1</dim>
					<dim>48</dim>
					<dim>35</dim>
					<dim>35</dim>
				</port>
			</output>
		</layer>
		<layer id="238" name="StatefulPartitionedCall/functional_1/batch_normalization_41/FusedBatchNormV3/mean/Fused_Mul_4680146803_const" type="Const" version="opset1">
			<data element_type="f32" offset="3942848" shape="64,48,3,3" size="110592"/>
			<output>
				<port id="1" precision="FP32">
					<dim>64</dim>
					<dim>48</dim>
					<dim>3</dim>
					<dim>3</dim>
				</port>
			</output>
		</layer>
		<layer id="239" name="StatefulPartitionedCall/functional_1/conv2d_41/Conv2D" type="Convolution" version="opset1">
			<data auto_pad="same_upper" dilations="1,1" output_padding="0,0" pads_begin="0,0" pads_end="0,0" strides="1,1"/>
			<input>
				<port id="0">
					<dim>1</dim>
					<dim>48</dim>
					<dim>35</dim>
					<dim>35</dim>
				</port>
				<port id="1">
					<dim>64</dim>
					<dim>48</dim>
					<dim>3</dim>
					<dim>3</dim>
				</port>
			</input>
			<output>
				<port id="2" precision="FP32">
					<dim>1</dim>
					<dim>64</dim>
					<dim>35</dim>
					<dim>35</dim>
				</port>
			</output>
		</layer>
		<layer id="240" name="data_add_4306043065/copy_const" type="Const" version="opset1">
			<data element_type="f32" offset="4053440" shape="1,64,1,1" size="256"/>
			<output>
				<port id="1" precision="FP32">
					<dim>1</dim>
					<dim>64</dim>
					<dim>1</dim>
					<dim>1</dim>
				</port>
			</output>
		</layer>
		<layer id="241" name="StatefulPartitionedCall/functional_1/batch_normalization_41/FusedBatchNormV3/variance/Fused_Add_" type="Add" version="opset1">
			<input>
				<port id="0">
					<dim>1</dim>
					<dim>64</dim>
					<dim>35</dim>
					<dim>35</dim>
				</port>
				<port id="1">
					<dim>1</dim>
					<dim>64</dim>
					<dim>1</dim>
					<dim>1</dim>
				</port>
			</input>
			<output>
				<port id="2" precision="FP32">
					<dim>1</dim>
					<dim>64</dim>
					<dim>35</dim>
					<dim>35</dim>
				</port>
			</output>
		</layer>
		<layer id="242" name="StatefulPartitionedCall/functional_1/activation_41/Relu" type="ReLU" version="opset1">
			<input>
				<port id="0">
					<dim>1</dim>
					<dim>64</dim>
					<dim>35</dim>
					<dim>35</dim>
				</port>
			</input>
			<output>
				<port id="1" precision="FP32">
					<dim>1</dim>
					<dim>64</dim>
					<dim>35</dim>
					<dim>35</dim>
				</port>
			</output>
		</layer>
		<layer id="243" name="StatefulPartitionedCall/functional_1/block35_5_mixed/concat" type="Concat" version="opset1">
			<data axis="1"/>
			<input>
				<port id="0">
					<dim>1</dim>
					<dim>32</dim>
					<dim>35</dim>
					<dim>35</dim>
				</port>
				<port id="1">
					<dim>1</dim>
					<dim>32</dim>
					<dim>35</dim>
					<dim>35</dim>
				</port>
				<port id="2">
					<dim>1</dim>
					<dim>64</dim>
					<dim>35</dim>
					<dim>35</dim>
				</port>
			</input>
			<output>
				<port id="3" precision="FP32">
					<dim>1</dim>
					<dim>128</dim>
					<dim>35</dim>
					<dim>35</dim>
				</port>
			</output>
		</layer>
		<layer id="244" name="StatefulPartitionedCall/functional_1/block35_5/mul/Fused_Mul_4681746819_const" type="Const" version="opset1">
			<data element_type="f32" offset="4053696" shape="320,128,1,1" size="163840"/>
			<output>
				<port id="1" precision="FP32">
					<dim>320</dim>
					<dim>128</dim>
					<dim>1</dim>
					<dim>1</dim>
				</port>
			</output>
		</layer>
		<layer id="245" name="StatefulPartitionedCall/functional_1/block35_5_conv/Conv2D" type="Convolution" version="opset1">
			<data auto_pad="same_upper" dilations="1,1" output_padding="0,0" pads_begin="0,0" pads_end="0,0" strides="1,1"/>
			<input>
				<port id="0">
					<dim>1</dim>
					<dim>128</dim>
					<dim>35</dim>
					<dim>35</dim>
				</port>
				<port id="1">
					<dim>320</dim>
					<dim>128</dim>
					<dim>1</dim>
					<dim>1</dim>
				</port>
			</input>
			<output>
				<port id="2" precision="FP32">
					<dim>1</dim>
					<dim>320</dim>
					<dim>35</dim>
					<dim>35</dim>
				</port>
			</output>
		</layer>
		<layer id="246" name="data_add_4309243097/copy_const" type="Const" version="opset1">
			<data element_type="f32" offset="4217536" shape="1,320,1,1" size="1280"/>
			<output>
				<port id="1" precision="FP32">
					<dim>1</dim>
					<dim>320</dim>
					<dim>1</dim>
					<dim>1</dim>
				</port>
			</output>
		</layer>
		<layer id="247" name="StatefulPartitionedCall/functional_1/block35_5_conv/BiasAdd/Add/Fused_Add_" type="Add" version="opset1">
			<input>
				<port id="0">
					<dim>1</dim>
					<dim>320</dim>
					<dim>35</dim>
					<dim>35</dim>
				</port>
				<port id="1">
					<dim>1</dim>
					<dim>320</dim>
					<dim>1</dim>
					<dim>1</dim>
				</port>
			</input>
			<output>
				<port id="2" precision="FP32">
					<dim>1</dim>
					<dim>320</dim>
					<dim>35</dim>
					<dim>35</dim>
				</port>
			</output>
		</layer>
		<layer id="248" name="StatefulPartitionedCall/functional_1/block35_5/add" type="Add" version="opset1">
			<input>
				<port id="0">
					<dim>1</dim>
					<dim>320</dim>
					<dim>35</dim>
					<dim>35</dim>
				</port>
				<port id="1">
					<dim>1</dim>
					<dim>320</dim>
					<dim>35</dim>
					<dim>35</dim>
				</port>
			</input>
			<output>
				<port id="2" precision="FP32">
					<dim>1</dim>
					<dim>320</dim>
					<dim>35</dim>
					<dim>35</dim>
				</port>
			</output>
		</layer>
		<layer id="249" name="StatefulPartitionedCall/functional_1/block35_5_ac/Relu" type="ReLU" version="opset1">
			<input>
				<port id="0">
					<dim>1</dim>
					<dim>320</dim>
					<dim>35</dim>
					<dim>35</dim>
				</port>
			</input>
			<output>
				<port id="1" precision="FP32">
					<dim>1</dim>
					<dim>320</dim>
					<dim>35</dim>
					<dim>35</dim>
				</port>
			</output>
		</layer>
		<layer id="250" name="StatefulPartitionedCall/functional_1/batch_normalization_42/FusedBatchNormV3/mean/Fused_Mul_4684146843_const" type="Const" version="opset1">
			<data element_type="f32" offset="4218816" shape="32,320,1,1" size="40960"/>
			<output>
				<port id="1" precision="FP32">
					<dim>32</dim>
					<dim>320</dim>
					<dim>1</dim>
					<dim>1</dim>
				</port>
			</output>
		</layer>
		<layer id="251" name="StatefulPartitionedCall/functional_1/conv2d_42/Conv2D" type="Convolution" version="opset1">
			<data auto_pad="same_upper" dilations="1,1" output_padding="0,0" pads_begin="0,0" pads_end="0,0" strides="1,1"/>
			<input>
				<port id="0">
					<dim>1</dim>
					<dim>320</dim>
					<dim>35</dim>
					<dim>35</dim>
				</port>
				<port id="1">
					<dim>32</dim>
					<dim>320</dim>
					<dim>1</dim>
					<dim>1</dim>
				</port>
			</input>
			<output>
				<port id="2" precision="FP32">
					<dim>1</dim>
					<dim>32</dim>
					<dim>35</dim>
					<dim>35</dim>
				</port>
			</output>
		</layer>
		<layer id="252" name="data_add_4314043145/copy_const" type="Const" version="opset1">
			<data element_type="f32" offset="4259776" shape="1,32,1,1" size="128"/>
			<output>
				<port id="1" precision="FP32">
					<dim>1</dim>
					<dim>32</dim>
					<dim>1</dim>
					<dim>1</dim>
				</port>
			</output>
		</layer>
		<layer id="253" name="StatefulPartitionedCall/functional_1/batch_normalization_42/FusedBatchNormV3/variance/Fused_Add_" type="Add" version="opset1">
			<input>
				<port id="0">
					<dim>1</dim>
					<dim>32</dim>
					<dim>35</dim>
					<dim>35</dim>
				</port>
				<port id="1">
					<dim>1</dim>
					<dim>32</dim>
					<dim>1</dim>
					<dim>1</dim>
				</port>
			</input>
			<output>
				<port id="2" precision="FP32">
					<dim>1</dim>
					<dim>32</dim>
					<dim>35</dim>
					<dim>35</dim>
				</port>
			</output>
		</layer>
		<layer id="254" name="StatefulPartitionedCall/functional_1/activation_42/Relu" type="ReLU" version="opset1">
			<input>
				<port id="0">
					<dim>1</dim>
					<dim>32</dim>
					<dim>35</dim>
					<dim>35</dim>
				</port>
			</input>
			<output>
				<port id="1" precision="FP32">
					<dim>1</dim>
					<dim>32</dim>
					<dim>35</dim>
					<dim>35</dim>
				</port>
			</output>
		</layer>
		<layer id="255" name="StatefulPartitionedCall/functional_1/batch_normalization_43/FusedBatchNormV3/mean/Fused_Mul_4683346835_const" type="Const" version="opset1">
			<data element_type="f32" offset="4259904" shape="32,320,1,1" size="40960"/>
			<output>
				<port id="1" precision="FP32">
					<dim>32</dim>
					<dim>320</dim>
					<dim>1</dim>
					<dim>1</dim>
				</port>
			</output>
		</layer>
		<layer id="256" name="StatefulPartitionedCall/functional_1/conv2d_43/Conv2D" type="Convolution" version="opset1">
			<data auto_pad="same_upper" dilations="1,1" output_padding="0,0" pads_begin="0,0" pads_end="0,0" strides="1,1"/>
			<input>
				<port id="0">
					<dim>1</dim>
					<dim>320</dim>
					<dim>35</dim>
					<dim>35</dim>
				</port>
				<port id="1">
					<dim>32</dim>
					<dim>320</dim>
					<dim>1</dim>
					<dim>1</dim>
				</port>
			</input>
			<output>
				<port id="2" precision="FP32">
					<dim>1</dim>
					<dim>32</dim>
					<dim>35</dim>
					<dim>35</dim>
				</port>
			</output>
		</layer>
		<layer id="257" name="data_add_4312443129/copy_const" type="Const" version="opset1">
			<data element_type="f32" offset="4300864" shape="1,32,1,1" size="128"/>
			<output>
				<port id="1" precision="FP32">
					<dim>1</dim>
					<dim>32</dim>
					<dim>1</dim>
					<dim>1</dim>
				</port>
			</output>
		</layer>
		<layer id="258" name="StatefulPartitionedCall/functional_1/batch_normalization_43/FusedBatchNormV3/variance/Fused_Add_" type="Add" version="opset1">
			<input>
				<port id="0">
					<dim>1</dim>
					<dim>32</dim>
					<dim>35</dim>
					<dim>35</dim>
				</port>
				<port id="1">
					<dim>1</dim>
					<dim>32</dim>
					<dim>1</dim>
					<dim>1</dim>
				</port>
			</input>
			<output>
				<port id="2" precision="FP32">
					<dim>1</dim>
					<dim>32</dim>
					<dim>35</dim>
					<dim>35</dim>
				</port>
			</output>
		</layer>
		<layer id="259" name="StatefulPartitionedCall/functional_1/activation_43/Relu" type="ReLU" version="opset1">
			<input>
				<port id="0">
					<dim>1</dim>
					<dim>32</dim>
					<dim>35</dim>
					<dim>35</dim>
				</port>
			</input>
			<output>
				<port id="1" precision="FP32">
					<dim>1</dim>
					<dim>32</dim>
					<dim>35</dim>
					<dim>35</dim>
				</port>
			</output>
		</layer>
		<layer id="260" name="StatefulPartitionedCall/functional_1/batch_normalization_44/FusedBatchNormV3/mean/Fused_Mul_4683746839_const" type="Const" version="opset1">
			<data element_type="f32" offset="4300992" shape="32,32,3,3" size="36864"/>
			<output>
				<port id="1" precision="FP32">
					<dim>32</dim>
					<dim>32</dim>
					<dim>3</dim>
					<dim>3</dim>
				</port>
			</output>
		</layer>
		<layer id="261" name="StatefulPartitionedCall/functional_1/conv2d_44/Conv2D" type="Convolution" version="opset1">
			<data auto_pad="same_upper" dilations="1,1" output_padding="0,0" pads_begin="0,0" pads_end="0,0" strides="1,1"/>
			<input>
				<port id="0">
					<dim>1</dim>
					<dim>32</dim>
					<dim>35</dim>
					<dim>35</dim>
				</port>
				<port id="1">
					<dim>32</dim>
					<dim>32</dim>
					<dim>3</dim>
					<dim>3</dim>
				</port>
			</input>
			<output>
				<port id="2" precision="FP32">
					<dim>1</dim>
					<dim>32</dim>
					<dim>35</dim>
					<dim>35</dim>
				</port>
			</output>
		</layer>
		<layer id="262" name="data_add_4313243137/copy_const" type="Const" version="opset1">
			<data element_type="f32" offset="4337856" shape="1,32,1,1" size="128"/>
			<output>
				<port id="1" precision="FP32">
					<dim>1</dim>
					<dim>32</dim>
					<dim>1</dim>
					<dim>1</dim>
				</port>
			</output>
		</layer>
		<layer id="263" name="StatefulPartitionedCall/functional_1/batch_normalization_44/FusedBatchNormV3/variance/Fused_Add_" type="Add" version="opset1">
			<input>
				<port id="0">
					<dim>1</dim>
					<dim>32</dim>
					<dim>35</dim>
					<dim>35</dim>
				</port>
				<port id="1">
					<dim>1</dim>
					<dim>32</dim>
					<dim>1</dim>
					<dim>1</dim>
				</port>
			</input>
			<output>
				<port id="2" precision="FP32">
					<dim>1</dim>
					<dim>32</dim>
					<dim>35</dim>
					<dim>35</dim>
				</port>
			</output>
		</layer>
		<layer id="264" name="StatefulPartitionedCall/functional_1/activation_44/Relu" type="ReLU" version="opset1">
			<input>
				<port id="0">
					<dim>1</dim>
					<dim>32</dim>
					<dim>35</dim>
					<dim>35</dim>
				</port>
			</input>
			<output>
				<port id="1" precision="FP32">
					<dim>1</dim>
					<dim>32</dim>
					<dim>35</dim>
					<dim>35</dim>
				</port>
			</output>
		</layer>
		<layer id="265" name="StatefulPartitionedCall/functional_1/batch_normalization_45/FusedBatchNormV3/mean/Fused_Mul_4682146823_const" type="Const" version="opset1">
			<data element_type="f32" offset="4337984" shape="32,320,1,1" size="40960"/>
			<output>
				<port id="1" precision="FP32">
					<dim>32</dim>
					<dim>320</dim>
					<dim>1</dim>
					<dim>1</dim>
				</port>
			</output>
		</layer>
		<layer id="266" name="StatefulPartitionedCall/functional_1/conv2d_45/Conv2D" type="Convolution" version="opset1">
			<data auto_pad="same_upper" dilations="1,1" output_padding="0,0" pads_begin="0,0" pads_end="0,0" strides="1,1"/>
			<input>
				<port id="0">
					<dim>1</dim>
					<dim>320</dim>
					<dim>35</dim>
					<dim>35</dim>
				</port>
				<port id="1">
					<dim>32</dim>
					<dim>320</dim>
					<dim>1</dim>
					<dim>1</dim>
				</port>
			</input>
			<output>
				<port id="2" precision="FP32">
					<dim>1</dim>
					<dim>32</dim>
					<dim>35</dim>
					<dim>35</dim>
				</port>
			</output>
		</layer>
		<layer id="267" name="data_add_4310043105/copy_const" type="Const" version="opset1">
			<data element_type="f32" offset="4378944" shape="1,32,1,1" size="128"/>
			<output>
				<port id="1" precision="FP32">
					<dim>1</dim>
					<dim>32</dim>
					<dim>1</dim>
					<dim>1</dim>
				</port>
			</output>
		</layer>
		<layer id="268" name="StatefulPartitionedCall/functional_1/batch_normalization_45/FusedBatchNormV3/variance/Fused_Add_" type="Add" version="opset1">
			<input>
				<port id="0">
					<dim>1</dim>
					<dim>32</dim>
					<dim>35</dim>
					<dim>35</dim>
				</port>
				<port id="1">
					<dim>1</dim>
					<dim>32</dim>
					<dim>1</dim>
					<dim>1</dim>
				</port>
			</input>
			<output>
				<port id="2" precision="FP32">
					<dim>1</dim>
					<dim>32</dim>
					<dim>35</dim>
					<dim>35</dim>
				</port>
			</output>
		</layer>
		<layer id="269" name="StatefulPartitionedCall/functional_1/activation_45/Relu" type="ReLU" version="opset1">
			<input>
				<port id="0">
					<dim>1</dim>
					<dim>32</dim>
					<dim>35</dim>
					<dim>35</dim>
				</port>
			</input>
			<output>
				<port id="1" precision="FP32">
					<dim>1</dim>
					<dim>32</dim>
					<dim>35</dim>
					<dim>35</dim>
				</port>
			</output>
		</layer>
		<layer id="270" name="StatefulPartitionedCall/functional_1/batch_normalization_46/FusedBatchNormV3/mean/Fused_Mul_4682546827_const" type="Const" version="opset1">
			<data element_type="f32" offset="4379072" shape="48,32,3,3" size="55296"/>
			<output>
				<port id="1" precision="FP32">
					<dim>48</dim>
					<dim>32</dim>
					<dim>3</dim>
					<dim>3</dim>
				</port>
			</output>
		</layer>
		<layer id="271" name="StatefulPartitionedCall/functional_1/conv2d_46/Conv2D" type="Convolution" version="opset1">
			<data auto_pad="same_upper" dilations="1,1" output_padding="0,0" pads_begin="0,0" pads_end="0,0" strides="1,1"/>
			<input>
				<port id="0">
					<dim>1</dim>
					<dim>32</dim>
					<dim>35</dim>
					<dim>35</dim>
				</port>
				<port id="1">
					<dim>48</dim>
					<dim>32</dim>
					<dim>3</dim>
					<dim>3</dim>
				</port>
			</input>
			<output>
				<port id="2" precision="FP32">
					<dim>1</dim>
					<dim>48</dim>
					<dim>35</dim>
					<dim>35</dim>
				</port>
			</output>
		</layer>
		<layer id="272" name="data_add_4310843113/copy_const" type="Const" version="opset1">
			<data element_type="f32" offset="4434368" shape="1,48,1,1" size="192"/>
			<output>
				<port id="1" precision="FP32">
					<dim>1</dim>
					<dim>48</dim>
					<dim>1</dim>
					<dim>1</dim>
				</port>
			</output>
		</layer>
		<layer id="273" name="StatefulPartitionedCall/functional_1/batch_normalization_46/FusedBatchNormV3/variance/Fused_Add_" type="Add" version="opset1">
			<input>
				<port id="0">
					<dim>1</dim>
					<dim>48</dim>
					<dim>35</dim>
					<dim>35</dim>
				</port>
				<port id="1">
					<dim>1</dim>
					<dim>48</dim>
					<dim>1</dim>
					<dim>1</dim>
				</port>
			</input>
			<output>
				<port id="2" precision="FP32">
					<dim>1</dim>
					<dim>48</dim>
					<dim>35</dim>
					<dim>35</dim>
				</port>
			</output>
		</layer>
		<layer id="274" name="StatefulPartitionedCall/functional_1/activation_46/Relu" type="ReLU" version="opset1">
			<input>
				<port id="0">
					<dim>1</dim>
					<dim>48</dim>
					<dim>35</dim>
					<dim>35</dim>
				</port>
			</input>
			<output>
				<port id="1" precision="FP32">
					<dim>1</dim>
					<dim>48</dim>
					<dim>35</dim>
					<dim>35</dim>
				</port>
			</output>
		</layer>
		<layer id="275" name="StatefulPartitionedCall/functional_1/batch_normalization_47/FusedBatchNormV3/mean/Fused_Mul_4682946831_const" type="Const" version="opset1">
			<data element_type="f32" offset="4434560" shape="64,48,3,3" size="110592"/>
			<output>
				<port id="1" precision="FP32">
					<dim>64</dim>
					<dim>48</dim>
					<dim>3</dim>
					<dim>3</dim>
				</port>
			</output>
		</layer>
		<layer id="276" name="StatefulPartitionedCall/functional_1/conv2d_47/Conv2D" type="Convolution" version="opset1">
			<data auto_pad="same_upper" dilations="1,1" output_padding="0,0" pads_begin="0,0" pads_end="0,0" strides="1,1"/>
			<input>
				<port id="0">
					<dim>1</dim>
					<dim>48</dim>
					<dim>35</dim>
					<dim>35</dim>
				</port>
				<port id="1">
					<dim>64</dim>
					<dim>48</dim>
					<dim>3</dim>
					<dim>3</dim>
				</port>
			</input>
			<output>
				<port id="2" precision="FP32">
					<dim>1</dim>
					<dim>64</dim>
					<dim>35</dim>
					<dim>35</dim>
				</port>
			</output>
		</layer>
		<layer id="277" name="data_add_4311643121/copy_const" type="Const" version="opset1">
			<data element_type="f32" offset="4545152" shape="1,64,1,1" size="256"/>
			<output>
				<port id="1" precision="FP32">
					<dim>1</dim>
					<dim>64</dim>
					<dim>1</dim>
					<dim>1</dim>
				</port>
			</output>
		</layer>
		<layer id="278" name="StatefulPartitionedCall/functional_1/batch_normalization_47/FusedBatchNormV3/variance/Fused_Add_" type="Add" version="opset1">
			<input>
				<port id="0">
					<dim>1</dim>
					<dim>64</dim>
					<dim>35</dim>
					<dim>35</dim>
				</port>
				<port id="1">
					<dim>1</dim>
					<dim>64</dim>
					<dim>1</dim>
					<dim>1</dim>
				</port>
			</input>
			<output>
				<port id="2" precision="FP32">
					<dim>1</dim>
					<dim>64</dim>
					<dim>35</dim>
					<dim>35</dim>
				</port>
			</output>
		</layer>
		<layer id="279" name="StatefulPartitionedCall/functional_1/activation_47/Relu" type="ReLU" version="opset1">
			<input>
				<port id="0">
					<dim>1</dim>
					<dim>64</dim>
					<dim>35</dim>
					<dim>35</dim>
				</port>
			</input>
			<output>
				<port id="1" precision="FP32">
					<dim>1</dim>
					<dim>64</dim>
					<dim>35</dim>
					<dim>35</dim>
				</port>
			</output>
		</layer>
		<layer id="280" name="StatefulPartitionedCall/functional_1/block35_6_mixed/concat" type="Concat" version="opset1">
			<data axis="1"/>
			<input>
				<port id="0">
					<dim>1</dim>
					<dim>32</dim>
					<dim>35</dim>
					<dim>35</dim>
				</port>
				<port id="1">
					<dim>1</dim>
					<dim>32</dim>
					<dim>35</dim>
					<dim>35</dim>
				</port>
				<port id="2">
					<dim>1</dim>
					<dim>64</dim>
					<dim>35</dim>
					<dim>35</dim>
				</port>
			</input>
			<output>
				<port id="3" precision="FP32">
					<dim>1</dim>
					<dim>128</dim>
					<dim>35</dim>
					<dim>35</dim>
				</port>
			</output>
		</layer>
		<layer id="281" name="StatefulPartitionedCall/functional_1/block35_6/mul/Fused_Mul_4684546847_const" type="Const" version="opset1">
			<data element_type="f32" offset="4545408" shape="320,128,1,1" size="163840"/>
			<output>
				<port id="1" precision="FP32">
					<dim>320</dim>
					<dim>128</dim>
					<dim>1</dim>
					<dim>1</dim>
				</port>
			</output>
		</layer>
		<layer id="282" name="StatefulPartitionedCall/functional_1/block35_6_conv/Conv2D" type="Convolution" version="opset1">
			<data auto_pad="same_upper" dilations="1,1" output_padding="0,0" pads_begin="0,0" pads_end="0,0" strides="1,1"/>
			<input>
				<port id="0">
					<dim>1</dim>
					<dim>128</dim>
					<dim>35</dim>
					<dim>35</dim>
				</port>
				<port id="1">
					<dim>320</dim>
					<dim>128</dim>
					<dim>1</dim>
					<dim>1</dim>
				</port>
			</input>
			<output>
				<port id="2" precision="FP32">
					<dim>1</dim>
					<dim>320</dim>
					<dim>35</dim>
					<dim>35</dim>
				</port>
			</output>
		</layer>
		<layer id="283" name="data_add_4314843153/copy_const" type="Const" version="opset1">
			<data element_type="f32" offset="4709248" shape="1,320,1,1" size="1280"/>
			<output>
				<port id="1" precision="FP32">
					<dim>1</dim>
					<dim>320</dim>
					<dim>1</dim>
					<dim>1</dim>
				</port>
			</output>
		</layer>
		<layer id="284" name="StatefulPartitionedCall/functional_1/block35_6_conv/BiasAdd/Add/Fused_Add_" type="Add" version="opset1">
			<input>
				<port id="0">
					<dim>1</dim>
					<dim>320</dim>
					<dim>35</dim>
					<dim>35</dim>
				</port>
				<port id="1">
					<dim>1</dim>
					<dim>320</dim>
					<dim>1</dim>
					<dim>1</dim>
				</port>
			</input>
			<output>
				<port id="2" precision="FP32">
					<dim>1</dim>
					<dim>320</dim>
					<dim>35</dim>
					<dim>35</dim>
				</port>
			</output>
		</layer>
		<layer id="285" name="StatefulPartitionedCall/functional_1/block35_6/add" type="Add" version="opset1">
			<input>
				<port id="0">
					<dim>1</dim>
					<dim>320</dim>
					<dim>35</dim>
					<dim>35</dim>
				</port>
				<port id="1">
					<dim>1</dim>
					<dim>320</dim>
					<dim>35</dim>
					<dim>35</dim>
				</port>
			</input>
			<output>
				<port id="2" precision="FP32">
					<dim>1</dim>
					<dim>320</dim>
					<dim>35</dim>
					<dim>35</dim>
				</port>
			</output>
		</layer>
		<layer id="286" name="StatefulPartitionedCall/functional_1/block35_6_ac/Relu" type="ReLU" version="opset1">
			<input>
				<port id="0">
					<dim>1</dim>
					<dim>320</dim>
					<dim>35</dim>
					<dim>35</dim>
				</port>
			</input>
			<output>
				<port id="1" precision="FP32">
					<dim>1</dim>
					<dim>320</dim>
					<dim>35</dim>
					<dim>35</dim>
				</port>
			</output>
		</layer>
		<layer id="287" name="StatefulPartitionedCall/functional_1/batch_normalization_48/FusedBatchNormV3/mean/Fused_Mul_4686946871_const" type="Const" version="opset1">
			<data element_type="f32" offset="4710528" shape="32,320,1,1" size="40960"/>
			<output>
				<port id="1" precision="FP32">
					<dim>32</dim>
					<dim>320</dim>
					<dim>1</dim>
					<dim>1</dim>
				</port>
			</output>
		</layer>
		<layer id="288" name="StatefulPartitionedCall/functional_1/conv2d_48/Conv2D" type="Convolution" version="opset1">
			<data auto_pad="same_upper" dilations="1,1" output_padding="0,0" pads_begin="0,0" pads_end="0,0" strides="1,1"/>
			<input>
				<port id="0">
					<dim>1</dim>
					<dim>320</dim>
					<dim>35</dim>
					<dim>35</dim>
				</port>
				<port id="1">
					<dim>32</dim>
					<dim>320</dim>
					<dim>1</dim>
					<dim>1</dim>
				</port>
			</input>
			<output>
				<port id="2" precision="FP32">
					<dim>1</dim>
					<dim>32</dim>
					<dim>35</dim>
					<dim>35</dim>
				</port>
			</output>
		</layer>
		<layer id="289" name="data_add_4319643201/copy_const" type="Const" version="opset1">
			<data element_type="f32" offset="4751488" shape="1,32,1,1" size="128"/>
			<output>
				<port id="1" precision="FP32">
					<dim>1</dim>
					<dim>32</dim>
					<dim>1</dim>
					<dim>1</dim>
				</port>
			</output>
		</layer>
		<layer id="290" name="StatefulPartitionedCall/functional_1/batch_normalization_48/FusedBatchNormV3/variance/Fused_Add_" type="Add" version="opset1">
			<input>
				<port id="0">
					<dim>1</dim>
					<dim>32</dim>
					<dim>35</dim>
					<dim>35</dim>
				</port>
				<port id="1">
					<dim>1</dim>
					<dim>32</dim>
					<dim>1</dim>
					<dim>1</dim>
				</port>
			</input>
			<output>
				<port id="2" precision="FP32">
					<dim>1</dim>
					<dim>32</dim>
					<dim>35</dim>
					<dim>35</dim>
				</port>
			</output>
		</layer>
		<layer id="291" name="StatefulPartitionedCall/functional_1/activation_48/Relu" type="ReLU" version="opset1">
			<input>
				<port id="0">
					<dim>1</dim>
					<dim>32</dim>
					<dim>35</dim>
					<dim>35</dim>
				</port>
			</input>
			<output>
				<port id="1" precision="FP32">
					<dim>1</dim>
					<dim>32</dim>
					<dim>35</dim>
					<dim>35</dim>
				</port>
			</output>
		</layer>
		<layer id="292" name="StatefulPartitionedCall/functional_1/batch_normalization_49/FusedBatchNormV3/mean/Fused_Mul_4686146863_const" type="Const" version="opset1">
			<data element_type="f32" offset="4751616" shape="32,320,1,1" size="40960"/>
			<output>
				<port id="1" precision="FP32">
					<dim>32</dim>
					<dim>320</dim>
					<dim>1</dim>
					<dim>1</dim>
				</port>
			</output>
		</layer>
		<layer id="293" name="StatefulPartitionedCall/functional_1/conv2d_49/Conv2D" type="Convolution" version="opset1">
			<data auto_pad="same_upper" dilations="1,1" output_padding="0,0" pads_begin="0,0" pads_end="0,0" strides="1,1"/>
			<input>
				<port id="0">
					<dim>1</dim>
					<dim>320</dim>
					<dim>35</dim>
					<dim>35</dim>
				</port>
				<port id="1">
					<dim>32</dim>
					<dim>320</dim>
					<dim>1</dim>
					<dim>1</dim>
				</port>
			</input>
			<output>
				<port id="2" precision="FP32">
					<dim>1</dim>
					<dim>32</dim>
					<dim>35</dim>
					<dim>35</dim>
				</port>
			</output>
		</layer>
		<layer id="294" name="data_add_4318043185/copy_const" type="Const" version="opset1">
			<data element_type="f32" offset="4792576" shape="1,32,1,1" size="128"/>
			<output>
				<port id="1" precision="FP32">
					<dim>1</dim>
					<dim>32</dim>
					<dim>1</dim>
					<dim>1</dim>
				</port>
			</output>
		</layer>
		<layer id="295" name="StatefulPartitionedCall/functional_1/batch_normalization_49/FusedBatchNormV3/variance/Fused_Add_" type="Add" version="opset1">
			<input>
				<port id="0">
					<dim>1</dim>
					<dim>32</dim>
					<dim>35</dim>
					<dim>35</dim>
				</port>
				<port id="1">
					<dim>1</dim>
					<dim>32</dim>
					<dim>1</dim>
					<dim>1</dim>
				</port>
			</input>
			<output>
				<port id="2" precision="FP32">
					<dim>1</dim>
					<dim>32</dim>
					<dim>35</dim>
					<dim>35</dim>
				</port>
			</output>
		</layer>
		<layer id="296" name="StatefulPartitionedCall/functional_1/activation_49/Relu" type="ReLU" version="opset1">
			<input>
				<port id="0">
					<dim>1</dim>
					<dim>32</dim>
					<dim>35</dim>
					<dim>35</dim>
				</port>
			</input>
			<output>
				<port id="1" precision="FP32">
					<dim>1</dim>
					<dim>32</dim>
					<dim>35</dim>
					<dim>35</dim>
				</port>
			</output>
		</layer>
		<layer id="297" name="StatefulPartitionedCall/functional_1/batch_normalization_50/FusedBatchNormV3/mean/Fused_Mul_4686546867_const" type="Const" version="opset1">
			<data element_type="f32" offset="4792704" shape="32,32,3,3" size="36864"/>
			<output>
				<port id="1" precision="FP32">
					<dim>32</dim>
					<dim>32</dim>
					<dim>3</dim>
					<dim>3</dim>
				</port>
			</output>
		</layer>
		<layer id="298" name="StatefulPartitionedCall/functional_1/conv2d_50/Conv2D" type="Convolution" version="opset1">
			<data auto_pad="same_upper" dilations="1,1" output_padding="0,0" pads_begin="0,0" pads_end="0,0" strides="1,1"/>
			<input>
				<port id="0">
					<dim>1</dim>
					<dim>32</dim>
					<dim>35</dim>
					<dim>35</dim>
				</port>
				<port id="1">
					<dim>32</dim>
					<dim>32</dim>
					<dim>3</dim>
					<dim>3</dim>
				</port>
			</input>
			<output>
				<port id="2" precision="FP32">
					<dim>1</dim>
					<dim>32</dim>
					<dim>35</dim>
					<dim>35</dim>
				</port>
			</output>
		</layer>
		<layer id="299" name="data_add_4318843193/copy_const" type="Const" version="opset1">
			<data element_type="f32" offset="4829568" shape="1,32,1,1" size="128"/>
			<output>
				<port id="1" precision="FP32">
					<dim>1</dim>
					<dim>32</dim>
					<dim>1</dim>
					<dim>1</dim>
				</port>
			</output>
		</layer>
		<layer id="300" name="StatefulPartitionedCall/functional_1/batch_normalization_50/FusedBatchNormV3/variance/Fused_Add_" type="Add" version="opset1">
			<input>
				<port id="0">
					<dim>1</dim>
					<dim>32</dim>
					<dim>35</dim>
					<dim>35</dim>
				</port>
				<port id="1">
					<dim>1</dim>
					<dim>32</dim>
					<dim>1</dim>
					<dim>1</dim>
				</port>
			</input>
			<output>
				<port id="2" precision="FP32">
					<dim>1</dim>
					<dim>32</dim>
					<dim>35</dim>
					<dim>35</dim>
				</port>
			</output>
		</layer>
		<layer id="301" name="StatefulPartitionedCall/functional_1/activation_50/Relu" type="ReLU" version="opset1">
			<input>
				<port id="0">
					<dim>1</dim>
					<dim>32</dim>
					<dim>35</dim>
					<dim>35</dim>
				</port>
			</input>
			<output>
				<port id="1" precision="FP32">
					<dim>1</dim>
					<dim>32</dim>
					<dim>35</dim>
					<dim>35</dim>
				</port>
			</output>
		</layer>
		<layer id="302" name="StatefulPartitionedCall/functional_1/batch_normalization_51/FusedBatchNormV3/mean/Fused_Mul_4684946851_const" type="Const" version="opset1">
			<data element_type="f32" offset="4829696" shape="32,320,1,1" size="40960"/>
			<output>
				<port id="1" precision="FP32">
					<dim>32</dim>
					<dim>320</dim>
					<dim>1</dim>
					<dim>1</dim>
				</port>
			</output>
		</layer>
		<layer id="303" name="StatefulPartitionedCall/functional_1/conv2d_51/Conv2D" type="Convolution" version="opset1">
			<data auto_pad="same_upper" dilations="1,1" output_padding="0,0" pads_begin="0,0" pads_end="0,0" strides="1,1"/>
			<input>
				<port id="0">
					<dim>1</dim>
					<dim>320</dim>
					<dim>35</dim>
					<dim>35</dim>
				</port>
				<port id="1">
					<dim>32</dim>
					<dim>320</dim>
					<dim>1</dim>
					<dim>1</dim>
				</port>
			</input>
			<output>
				<port id="2" precision="FP32">
					<dim>1</dim>
					<dim>32</dim>
					<dim>35</dim>
					<dim>35</dim>
				</port>
			</output>
		</layer>
		<layer id="304" name="data_add_4315643161/copy_const" type="Const" version="opset1">
			<data element_type="f32" offset="4870656" shape="1,32,1,1" size="128"/>
			<output>
				<port id="1" precision="FP32">
					<dim>1</dim>
					<dim>32</dim>
					<dim>1</dim>
					<dim>1</dim>
				</port>
			</output>
		</layer>
		<layer id="305" name="StatefulPartitionedCall/functional_1/batch_normalization_51/FusedBatchNormV3/variance/Fused_Add_" type="Add" version="opset1">
			<input>
				<port id="0">
					<dim>1</dim>
					<dim>32</dim>
					<dim>35</dim>
					<dim>35</dim>
				</port>
				<port id="1">
					<dim>1</dim>
					<dim>32</dim>
					<dim>1</dim>
					<dim>1</dim>
				</port>
			</input>
			<output>
				<port id="2" precision="FP32">
					<dim>1</dim>
					<dim>32</dim>
					<dim>35</dim>
					<dim>35</dim>
				</port>
			</output>
		</layer>
		<layer id="306" name="StatefulPartitionedCall/functional_1/activation_51/Relu" type="ReLU" version="opset1">
			<input>
				<port id="0">
					<dim>1</dim>
					<dim>32</dim>
					<dim>35</dim>
					<dim>35</dim>
				</port>
			</input>
			<output>
				<port id="1" precision="FP32">
					<dim>1</dim>
					<dim>32</dim>
					<dim>35</dim>
					<dim>35</dim>
				</port>
			</output>
		</layer>
		<layer id="307" name="StatefulPartitionedCall/functional_1/batch_normalization_52/FusedBatchNormV3/mean/Fused_Mul_4685346855_const" type="Const" version="opset1">
			<data element_type="f32" offset="4870784" shape="48,32,3,3" size="55296"/>
			<output>
				<port id="1" precision="FP32">
					<dim>48</dim>
					<dim>32</dim>
					<dim>3</dim>
					<dim>3</dim>
				</port>
			</output>
		</layer>
		<layer id="308" name="StatefulPartitionedCall/functional_1/conv2d_52/Conv2D" type="Convolution" version="opset1">
			<data auto_pad="same_upper" dilations="1,1" output_padding="0,0" pads_begin="0,0" pads_end="0,0" strides="1,1"/>
			<input>
				<port id="0">
					<dim>1</dim>
					<dim>32</dim>
					<dim>35</dim>
					<dim>35</dim>
				</port>
				<port id="1">
					<dim>48</dim>
					<dim>32</dim>
					<dim>3</dim>
					<dim>3</dim>
				</port>
			</input>
			<output>
				<port id="2" precision="FP32">
					<dim>1</dim>
					<dim>48</dim>
					<dim>35</dim>
					<dim>35</dim>
				</port>
			</output>
		</layer>
		<layer id="309" name="data_add_4316443169/copy_const" type="Const" version="opset1">
			<data element_type="f32" offset="4926080" shape="1,48,1,1" size="192"/>
			<output>
				<port id="1" precision="FP32">
					<dim>1</dim>
					<dim>48</dim>
					<dim>1</dim>
					<dim>1</dim>
				</port>
			</output>
		</layer>
		<layer id="310" name="StatefulPartitionedCall/functional_1/batch_normalization_52/FusedBatchNormV3/variance/Fused_Add_" type="Add" version="opset1">
			<input>
				<port id="0">
					<dim>1</dim>
					<dim>48</dim>
					<dim>35</dim>
					<dim>35</dim>
				</port>
				<port id="1">
					<dim>1</dim>
					<dim>48</dim>
					<dim>1</dim>
					<dim>1</dim>
				</port>
			</input>
			<output>
				<port id="2" precision="FP32">
					<dim>1</dim>
					<dim>48</dim>
					<dim>35</dim>
					<dim>35</dim>
				</port>
			</output>
		</layer>
		<layer id="311" name="StatefulPartitionedCall/functional_1/activation_52/Relu" type="ReLU" version="opset1">
			<input>
				<port id="0">
					<dim>1</dim>
					<dim>48</dim>
					<dim>35</dim>
					<dim>35</dim>
				</port>
			</input>
			<output>
				<port id="1" precision="FP32">
					<dim>1</dim>
					<dim>48</dim>
					<dim>35</dim>
					<dim>35</dim>
				</port>
			</output>
		</layer>
		<layer id="312" name="StatefulPartitionedCall/functional_1/batch_normalization_53/FusedBatchNormV3/mean/Fused_Mul_4685746859_const" type="Const" version="opset1">
			<data element_type="f32" offset="4926272" shape="64,48,3,3" size="110592"/>
			<output>
				<port id="1" precision="FP32">
					<dim>64</dim>
					<dim>48</dim>
					<dim>3</dim>
					<dim>3</dim>
				</port>
			</output>
		</layer>
		<layer id="313" name="StatefulPartitionedCall/functional_1/conv2d_53/Conv2D" type="Convolution" version="opset1">
			<data auto_pad="same_upper" dilations="1,1" output_padding="0,0" pads_begin="0,0" pads_end="0,0" strides="1,1"/>
			<input>
				<port id="0">
					<dim>1</dim>
					<dim>48</dim>
					<dim>35</dim>
					<dim>35</dim>
				</port>
				<port id="1">
					<dim>64</dim>
					<dim>48</dim>
					<dim>3</dim>
					<dim>3</dim>
				</port>
			</input>
			<output>
				<port id="2" precision="FP32">
					<dim>1</dim>
					<dim>64</dim>
					<dim>35</dim>
					<dim>35</dim>
				</port>
			</output>
		</layer>
		<layer id="314" name="data_add_4317243177/copy_const" type="Const" version="opset1">
			<data element_type="f32" offset="5036864" shape="1,64,1,1" size="256"/>
			<output>
				<port id="1" precision="FP32">
					<dim>1</dim>
					<dim>64</dim>
					<dim>1</dim>
					<dim>1</dim>
				</port>
			</output>
		</layer>
		<layer id="315" name="StatefulPartitionedCall/functional_1/batch_normalization_53/FusedBatchNormV3/variance/Fused_Add_" type="Add" version="opset1">
			<input>
				<port id="0">
					<dim>1</dim>
					<dim>64</dim>
					<dim>35</dim>
					<dim>35</dim>
				</port>
				<port id="1">
					<dim>1</dim>
					<dim>64</dim>
					<dim>1</dim>
					<dim>1</dim>
				</port>
			</input>
			<output>
				<port id="2" precision="FP32">
					<dim>1</dim>
					<dim>64</dim>
					<dim>35</dim>
					<dim>35</dim>
				</port>
			</output>
		</layer>
		<layer id="316" name="StatefulPartitionedCall/functional_1/activation_53/Relu" type="ReLU" version="opset1">
			<input>
				<port id="0">
					<dim>1</dim>
					<dim>64</dim>
					<dim>35</dim>
					<dim>35</dim>
				</port>
			</input>
			<output>
				<port id="1" precision="FP32">
					<dim>1</dim>
					<dim>64</dim>
					<dim>35</dim>
					<dim>35</dim>
				</port>
			</output>
		</layer>
		<layer id="317" name="StatefulPartitionedCall/functional_1/block35_7_mixed/concat" type="Concat" version="opset1">
			<data axis="1"/>
			<input>
				<port id="0">
					<dim>1</dim>
					<dim>32</dim>
					<dim>35</dim>
					<dim>35</dim>
				</port>
				<port id="1">
					<dim>1</dim>
					<dim>32</dim>
					<dim>35</dim>
					<dim>35</dim>
				</port>
				<port id="2">
					<dim>1</dim>
					<dim>64</dim>
					<dim>35</dim>
					<dim>35</dim>
				</port>
			</input>
			<output>
				<port id="3" precision="FP32">
					<dim>1</dim>
					<dim>128</dim>
					<dim>35</dim>
					<dim>35</dim>
				</port>
			</output>
		</layer>
		<layer id="318" name="StatefulPartitionedCall/functional_1/block35_7/mul/Fused_Mul_4687346875_const" type="Const" version="opset1">
			<data element_type="f32" offset="5037120" shape="320,128,1,1" size="163840"/>
			<output>
				<port id="1" precision="FP32">
					<dim>320</dim>
					<dim>128</dim>
					<dim>1</dim>
					<dim>1</dim>
				</port>
			</output>
		</layer>
		<layer id="319" name="StatefulPartitionedCall/functional_1/block35_7_conv/Conv2D" type="Convolution" version="opset1">
			<data auto_pad="same_upper" dilations="1,1" output_padding="0,0" pads_begin="0,0" pads_end="0,0" strides="1,1"/>
			<input>
				<port id="0">
					<dim>1</dim>
					<dim>128</dim>
					<dim>35</dim>
					<dim>35</dim>
				</port>
				<port id="1">
					<dim>320</dim>
					<dim>128</dim>
					<dim>1</dim>
					<dim>1</dim>
				</port>
			</input>
			<output>
				<port id="2" precision="FP32">
					<dim>1</dim>
					<dim>320</dim>
					<dim>35</dim>
					<dim>35</dim>
				</port>
			</output>
		</layer>
		<layer id="320" name="data_add_4320443209/copy_const" type="Const" version="opset1">
			<data element_type="f32" offset="5200960" shape="1,320,1,1" size="1280"/>
			<output>
				<port id="1" precision="FP32">
					<dim>1</dim>
					<dim>320</dim>
					<dim>1</dim>
					<dim>1</dim>
				</port>
			</output>
		</layer>
		<layer id="321" name="StatefulPartitionedCall/functional_1/block35_7_conv/BiasAdd/Add/Fused_Add_" type="Add" version="opset1">
			<input>
				<port id="0">
					<dim>1</dim>
					<dim>320</dim>
					<dim>35</dim>
					<dim>35</dim>
				</port>
				<port id="1">
					<dim>1</dim>
					<dim>320</dim>
					<dim>1</dim>
					<dim>1</dim>
				</port>
			</input>
			<output>
				<port id="2" precision="FP32">
					<dim>1</dim>
					<dim>320</dim>
					<dim>35</dim>
					<dim>35</dim>
				</port>
			</output>
		</layer>
		<layer id="322" name="StatefulPartitionedCall/functional_1/block35_7/add" type="Add" version="opset1">
			<input>
				<port id="0">
					<dim>1</dim>
					<dim>320</dim>
					<dim>35</dim>
					<dim>35</dim>
				</port>
				<port id="1">
					<dim>1</dim>
					<dim>320</dim>
					<dim>35</dim>
					<dim>35</dim>
				</port>
			</input>
			<output>
				<port id="2" precision="FP32">
					<dim>1</dim>
					<dim>320</dim>
					<dim>35</dim>
					<dim>35</dim>
				</port>
			</output>
		</layer>
		<layer id="323" name="StatefulPartitionedCall/functional_1/block35_7_ac/Relu" type="ReLU" version="opset1">
			<input>
				<port id="0">
					<dim>1</dim>
					<dim>320</dim>
					<dim>35</dim>
					<dim>35</dim>
				</port>
			</input>
			<output>
				<port id="1" precision="FP32">
					<dim>1</dim>
					<dim>320</dim>
					<dim>35</dim>
					<dim>35</dim>
				</port>
			</output>
		</layer>
		<layer id="324" name="StatefulPartitionedCall/functional_1/batch_normalization_54/FusedBatchNormV3/mean/Fused_Mul_4689746899_const" type="Const" version="opset1">
			<data element_type="f32" offset="5202240" shape="32,320,1,1" size="40960"/>
			<output>
				<port id="1" precision="FP32">
					<dim>32</dim>
					<dim>320</dim>
					<dim>1</dim>
					<dim>1</dim>
				</port>
			</output>
		</layer>
		<layer id="325" name="StatefulPartitionedCall/functional_1/conv2d_54/Conv2D" type="Convolution" version="opset1">
			<data auto_pad="same_upper" dilations="1,1" output_padding="0,0" pads_begin="0,0" pads_end="0,0" strides="1,1"/>
			<input>
				<port id="0">
					<dim>1</dim>
					<dim>320</dim>
					<dim>35</dim>
					<dim>35</dim>
				</port>
				<port id="1">
					<dim>32</dim>
					<dim>320</dim>
					<dim>1</dim>
					<dim>1</dim>
				</port>
…
		<edge from-layer="673" from-port="1" to-layer="674" to-port="1"/>
		<edge from-layer="674" from-port="2" to-layer="676" to-port="0"/>
		<edge from-layer="675" from-port="1" to-layer="676" to-port="1"/>
		<edge from-layer="676" from-port="2" to-layer="677" to-port="0"/>
		<edge from-layer="672" from-port="1" to-layer="679" to-port="0"/>
		<edge from-layer="678" from-port="1" to-layer="679" to-port="1"/>
		<edge from-layer="679" from-port="2" to-layer="681" to-port="0"/>
		<edge from-layer="680" from-port="1" to-layer="681" to-port="1"/>
		<edge from-layer="681" from-port="2" to-layer="682" to-port="0"/>
		<edge from-layer="682" from-port="1" to-layer="684" to-port="0"/>
		<edge from-layer="683" from-port="1" to-layer="684" to-port="1"/>
		<edge from-layer="684" from-port="2" to-layer="686" to-port="0"/>
		<edge from-layer="685" from-port="1" to-layer="686" to-port="1"/>
		<edge from-layer="686" from-port="2" to-layer="687" to-port="0"/>
		<edge from-layer="687" from-port="1" to-layer="689" to-port="0"/>
		<edge from-layer="688" from-port="1" to-layer="689" to-port="1"/>
		<edge from-layer="689" from-port="2" to-layer="691" to-port="0"/>
		<edge from-layer="690" from-port="1" to-layer="691" to-port="1"/>
		<edge from-layer="691" from-port="2" to-layer="692" to-port="0"/>
		<edge from-layer="677" from-port="1" to-layer="693" to-port="0"/>
		<edge from-layer="692" from-port="1" to-layer="693" to-port="1"/>
		<edge from-layer="693" from-port="2" to-layer="695" to-port="0"/>
		<edge from-layer="694" from-port="1" to-layer="695" to-port="1"/>
		<edge from-layer="695" from-port="2" to-layer="697" to-port="0"/>
		<edge from-layer="696" from-port="1" to-layer="697" to-port="1"/>
		<edge from-layer="672" from-port="1" to-layer="698" to-port="0"/>
		<edge from-layer="697" from-port="2" to-layer="698" to-port="1"/>
		<edge from-layer="698" from-port="2" to-layer="699" to-port="0"/>
		<edge from-layer="699" from-port="1" to-layer="701" to-port="0"/>
		<edge from-layer="700" from-port="1" to-layer="701" to-port="1"/>
		<edge from-layer="701" from-port="2" to-layer="703" to-port="0"/>
		<edge from-layer="702" from-port="1" to-layer="703" to-port="1"/>
		<edge from-layer="703" from-port="2" to-layer="704" to-port="0"/>
		<edge from-layer="699" from-port="1" to-layer="706" to-port="0"/>
		<edge from-layer="705" from-port="1" to-layer="706" to-port="1"/>
		<edge from-layer="706" from-port="2" to-layer="708" to-port="0"/>
		<edge from-layer="707" from-port="1" to-layer="708" to-port="1"/>
		<edge from-layer="708" from-port="2" to-layer="709" to-port="0"/>
		<edge from-layer="709" from-port="1" to-layer="711" to-port="0"/>
		<edge from-layer="710" from-port="1" to-layer="711" to-port="1"/>
		<edge from-layer="711" from-port="2" to-layer="713" to-port="0"/>
		<edge from-layer="712" from-port="1" to-layer="713" to-port="1"/>
		<edge from-layer="713" from-port="2" to-layer="714" to-port="0"/>
		<edge from-layer="714" from-port="1" to-layer="716" to-port="0"/>
		<edge from-layer="715" from-port="1" to-layer="716" to-port="1"/>
		<edge from-layer="716" from-port="2" to-layer="718" to-port="0"/>
		<edge from-layer="717" from-port="1" to-layer="718" to-port="1"/>
		<edge from-layer="718" from-port="2" to-layer="719" to-port="0"/>
		<edge from-layer="704" from-port="1" to-layer="720" to-port="0"/>
		<edge from-layer="719" from-port="1" to-layer="720" to-port="1"/>
		<edge from-layer="720" from-port="2" to-layer="722" to-port="0"/>
		<edge from-layer="721" from-port="1" to-layer="722" to-port="1"/>
		<edge from-layer="722" from-port="2" to-layer="724" to-port="0"/>
		<edge from-layer="723" from-port="1" to-layer="724" to-port="1"/>
		<edge from-layer="699" from-port="1" to-layer="725" to-port="0"/>
		<edge from-layer="724" from-port="2" to-layer="725" to-port="1"/>
		<edge from-layer="725" from-port="2" to-layer="726" to-port="0"/>
		<edge from-layer="726" from-port="1" to-layer="728" to-port="0"/>
		<edge from-layer="727" from-port="1" to-layer="728" to-port="1"/>
		<edge from-layer="728" from-port="2" to-layer="730" to-port="0"/>
		<edge from-layer="729" from-port="1" to-layer="730" to-port="1"/>
		<edge from-layer="730" from-port="2" to-layer="731" to-port="0"/>
		<edge from-layer="726" from-port="1" to-layer="733" to-port="0"/>
		<edge from-layer="732" from-port="1" to-layer="733" to-port="1"/>
		<edge from-layer="733" from-port="2" to-layer="735" to-port="0"/>
		<edge from-layer="734" from-port="1" to-layer="735" to-port="1"/>
		<edge from-layer="735" from-port="2" to-layer="736" to-port="0"/>
		<edge from-layer="736" from-port="1" to-layer="738" to-port="0"/>
		<edge from-layer="737" from-port="1" to-layer="738" to-port="1"/>
		<edge from-layer="738" from-port="2" to-layer="740" to-port="0"/>
		<edge from-layer="739" from-port="1" to-layer="740" to-port="1"/>
		<edge from-layer="740" from-port="2" to-layer="741" to-port="0"/>
		<edge from-layer="741" from-port="1" to-layer="743" to-port="0"/>
		<edge from-layer="742" from-port="1" to-layer="743" to-port="1"/>
		<edge from-layer="743" from-port="2" to-layer="745" to-port="0"/>
		<edge from-layer="744" from-port="1" to-layer="745" to-port="1"/>
		<edge from-layer="745" from-port="2" to-layer="746" to-port="0"/>
		<edge from-layer="731" from-port="1" to-layer="747" to-port="0"/>
		<edge from-layer="746" from-port="1" to-layer="747" to-port="1"/>
		<edge from-layer="747" from-port="2" to-layer="749" to-port="0"/>
		<edge from-layer="748" from-port="1" to-layer="749" to-port="1"/>
		<edge from-layer="749" from-port="2" to-layer="751" to-port="0"/>
		<edge from-layer="750" from-port="1" to-layer="751" to-port="1"/>
		<edge from-layer="726" from-port="1" to-layer="752" to-port="0"/>
		<edge from-layer="751" from-port="2" to-layer="752" to-port="1"/>
		<edge from-layer="752" from-port="2" to-layer="753" to-port="0"/>
		<edge from-layer="753" from-port="1" to-layer="755" to-port="0"/>
		<edge from-layer="754" from-port="1" to-layer="755" to-port="1"/>
		<edge from-layer="755" from-port="2" to-layer="757" to-port="0"/>
		<edge from-layer="756" from-port="1" to-layer="757" to-port="1"/>
		<edge from-layer="757" from-port="2" to-layer="758" to-port="0"/>
		<edge from-layer="753" from-port="1" to-layer="760" to-port="0"/>
		<edge from-layer="759" from-port="1" to-layer="760" to-port="1"/>
		<edge from-layer="760" from-port="2" to-layer="762" to-port="0"/>
		<edge from-layer="761" from-port="1" to-layer="762" to-port="1"/>
		<edge from-layer="762" from-port="2" to-layer="763" to-port="0"/>
		<edge from-layer="763" from-port="1" to-layer="765" to-port="0"/>
		<edge from-layer="764" from-port="1" to-layer="765" to-port="1"/>
		<edge from-layer="765" from-port="2" to-layer="767" to-port="0"/>
		<edge from-layer="766" from-port="1" to-layer="767" to-port="1"/>
		<edge from-layer="767" from-port="2" to-layer="768" to-port="0"/>
		<edge from-layer="768" from-port="1" to-layer="770" to-port="0"/>
		<edge from-layer="769" from-port="1" to-layer="770" to-port="1"/>
		<edge from-layer="770" from-port="2" to-layer="772" to-port="0"/>
		<edge from-layer="771" from-port="1" to-layer="772" to-port="1"/>
		<edge from-layer="772" from-port="2" to-layer="773" to-port="0"/>
		<edge from-layer="758" from-port="1" to-layer="774" to-port="0"/>
		<edge from-layer="773" from-port="1" to-layer="774" to-port="1"/>
		<edge from-layer="774" from-port="2" to-layer="776" to-port="0"/>
		<edge from-layer="775" from-port="1" to-layer="776" to-port="1"/>
		<edge from-layer="776" from-port="2" to-layer="778" to-port="0"/>
		<edge from-layer="777" from-port="1" to-layer="778" to-port="1"/>
		<edge from-layer="753" from-port="1" to-layer="779" to-port="0"/>
		<edge from-layer="778" from-port="2" to-layer="779" to-port="1"/>
		<edge from-layer="779" from-port="2" to-layer="780" to-port="0"/>
		<edge from-layer="780" from-port="1" to-layer="782" to-port="0"/>
		<edge from-layer="781" from-port="1" to-layer="782" to-port="1"/>
		<edge from-layer="782" from-port="2" to-layer="784" to-port="0"/>
		<edge from-layer="783" from-port="1" to-layer="784" to-port="1"/>
		<edge from-layer="784" from-port="2" to-layer="785" to-port="0"/>
		<edge from-layer="780" from-port="1" to-layer="787" to-port="0"/>
		<edge from-layer="786" from-port="1" to-layer="787" to-port="1"/>
		<edge from-layer="787" from-port="2" to-layer="789" to-port="0"/>
		<edge from-layer="788" from-port="1" to-layer="789" to-port="1"/>
		<edge from-layer="789" from-port="2" to-layer="790" to-port="0"/>
		<edge from-layer="790" from-port="1" to-layer="792" to-port="0"/>
		<edge from-layer="791" from-port="1" to-layer="792" to-port="1"/>
		<edge from-layer="792" from-port="2" to-layer="794" to-port="0"/>
		<edge from-layer="793" from-port="1" to-layer="794" to-port="1"/>
		<edge from-layer="794" from-port="2" to-layer="795" to-port="0"/>
		<edge from-layer="795" from-port="1" to-layer="797" to-port="0"/>
		<edge from-layer="796" from-port="1" to-layer="797" to-port="1"/>
		<edge from-layer="797" from-port="2" to-layer="799" to-port="0"/>
		<edge from-layer="798" from-port="1" to-layer="799" to-port="1"/>
		<edge from-layer="799" from-port="2" to-layer="800" to-port="0"/>
		<edge from-layer="785" from-port="1" to-layer="801" to-port="0"/>
		<edge from-layer="800" from-port="1" to-layer="801" to-port="1"/>
		<edge from-layer="801" from-port="2" to-layer="803" to-port="0"/>
		<edge from-layer="802" from-port="1" to-layer="803" to-port="1"/>
		<edge from-layer="803" from-port="2" to-layer="805" to-port="0"/>
		<edge from-layer="804" from-port="1" to-layer="805" to-port="1"/>
		<edge from-layer="780" from-port="1" to-layer="806" to-port="0"/>
		<edge from-layer="805" from-port="2" to-layer="806" to-port="1"/>
		<edge from-layer="806" from-port="2" to-layer="807" to-port="0"/>
		<edge from-layer="807" from-port="1" to-layer="809" to-port="0"/>
		<edge from-layer="808" from-port="1" to-layer="809" to-port="1"/>
		<edge from-layer="809" from-port="2" to-layer="811" to-port="0"/>
		<edge from-layer="810" from-port="1" to-layer="811" to-port="1"/>
		<edge from-layer="811" from-port="2" to-layer="812" to-port="0"/>
		<edge from-layer="807" from-port="1" to-layer="814" to-port="0"/>
		<edge from-layer="813" from-port="1" to-layer="814" to-port="1"/>
		<edge from-layer="814" from-port="2" to-layer="816" to-port="0"/>
		<edge from-layer="815" from-port="1" to-layer="816" to-port="1"/>
		<edge from-layer="816" from-port="2" to-layer="817" to-port="0"/>
		<edge from-layer="817" from-port="1" to-layer="819" to-port="0"/>
		<edge from-layer="818" from-port="1" to-layer="819" to-port="1"/>
		<edge from-layer="819" from-port="2" to-layer="821" to-port="0"/>
		<edge from-layer="820" from-port="1" to-layer="821" to-port="1"/>
		<edge from-layer="821" from-port="2" to-layer="822" to-port="0"/>
		<edge from-layer="822" from-port="1" to-layer="824" to-port="0"/>
		<edge from-layer="823" from-port="1" to-layer="824" to-port="1"/>
		<edge from-layer="824" from-port="2" to-layer="826" to-port="0"/>
		<edge from-layer="825" from-port="1" to-layer="826" to-port="1"/>
		<edge from-layer="826" from-port="2" to-layer="827" to-port="0"/>
		<edge from-layer="812" from-port="1" to-layer="828" to-port="0"/>
		<edge from-layer="827" from-port="1" to-layer="828" to-port="1"/>
		<edge from-layer="828" from-port="2" to-layer="830" to-port="0"/>
		<edge from-layer="829" from-port="1" to-layer="830" to-port="1"/>
		<edge from-layer="830" from-port="2" to-layer="832" to-port="0"/>
		<edge from-layer="831" from-port="1" to-layer="832" to-port="1"/>
		<edge from-layer="807" from-port="1" to-layer="833" to-port="0"/>
		<edge from-layer="832" from-port="2" to-layer="833" to-port="1"/>
		<edge from-layer="833" from-port="2" to-layer="834" to-port="0"/>
		<edge from-layer="834" from-port="1" to-layer="836" to-port="0"/>
		<edge from-layer="835" from-port="1" to-layer="836" to-port="1"/>
		<edge from-layer="836" from-port="2" to-layer="838" to-port="0"/>
		<edge from-layer="837" from-port="1" to-layer="838" to-port="1"/>
		<edge from-layer="838" from-port="2" to-layer="839" to-port="0"/>
		<edge from-layer="834" from-port="1" to-layer="841" to-port="0"/>
		<edge from-layer="840" from-port="1" to-layer="841" to-port="1"/>
		<edge from-layer="841" from-port="2" to-layer="843" to-port="0"/>
		<edge from-layer="842" from-port="1" to-layer="843" to-port="1"/>
		<edge from-layer="843" from-port="2" to-layer="844" to-port="0"/>
		<edge from-layer="844" from-port="1" to-layer="846" to-port="0"/>
		<edge from-layer="845" from-port="1" to-layer="846" to-port="1"/>
		<edge from-layer="846" from-port="2" to-layer="848" to-port="0"/>
		<edge from-layer="847" from-port="1" to-layer="848" to-port="1"/>
		<edge from-layer="848" from-port="2" to-layer="849" to-port="0"/>
		<edge from-layer="849" from-port="1" to-layer="851" to-port="0"/>
		<edge from-layer="850" from-port="1" to-layer="851" to-port="1"/>
		<edge from-layer="851" from-port="2" to-layer="853" to-port="0"/>
		<edge from-layer="852" from-port="1" to-layer="853" to-port="1"/>
		<edge from-layer="853" from-port="2" to-layer="854" to-port="0"/>
		<edge from-layer="839" from-port="1" to-layer="855" to-port="0"/>
		<edge from-layer="854" from-port="1" to-layer="855" to-port="1"/>
		<edge from-layer="855" from-port="2" to-layer="857" to-port="0"/>
		<edge from-layer="856" from-port="1" to-layer="857" to-port="1"/>
		<edge from-layer="857" from-port="2" to-layer="859" to-port="0"/>
		<edge from-layer="858" from-port="1" to-layer="859" to-port="1"/>
		<edge from-layer="834" from-port="1" to-layer="860" to-port="0"/>
		<edge from-layer="859" from-port="2" to-layer="860" to-port="1"/>
		<edge from-layer="860" from-port="2" to-layer="861" to-port="0"/>
		<edge from-layer="861" from-port="1" to-layer="863" to-port="0"/>
		<edge from-layer="862" from-port="1" to-layer="863" to-port="1"/>
		<edge from-layer="863" from-port="2" to-layer="865" to-port="0"/>
		<edge from-layer="864" from-port="1" to-layer="865" to-port="1"/>
		<edge from-layer="865" from-port="2" to-layer="866" to-port="0"/>
		<edge from-layer="861" from-port="1" to-layer="868" to-port="0"/>
		<edge from-layer="867" from-port="1" to-layer="868" to-port="1"/>
		<edge from-layer="868" from-port="2" to-layer="870" to-port="0"/>
		<edge from-layer="869" from-port="1" to-layer="870" to-port="1"/>
		<edge from-layer="870" from-port="2" to-layer="871" to-port="0"/>
		<edge from-layer="871" from-port="1" to-layer="873" to-port="0"/>
		<edge from-layer="872" from-port="1" to-layer="873" to-port="1"/>
		<edge from-layer="873" from-port="2" to-layer="875" to-port="0"/>
		<edge from-layer="874" from-port="1" to-layer="875" to-port="1"/>
		<edge from-layer="875" from-port="2" to-layer="876" to-port="0"/>
		<edge from-layer="876" from-port="1" to-layer="878" to-port="0"/>
		<edge from-layer="877" from-port="1" to-layer="878" to-port="1"/>
		<edge from-layer="878" from-port="2" to-layer="880" to-port="0"/>
		<edge from-layer="879" from-port="1" to-layer="880" to-port="1"/>
		<edge from-layer="880" from-port="2" to-layer="881" to-port="0"/>
		<edge from-layer="866" from-port="1" to-layer="882" to-port="0"/>
		<edge from-layer="881" from-port="1" to-layer="882" to-port="1"/>
		<edge from-layer="882" from-port="2" to-layer="884" to-port="0"/>
		<edge from-layer="883" from-port="1" to-layer="884" to-port="1"/>
		<edge from-layer="884" from-port="2" to-layer="886" to-port="0"/>
		<edge from-layer="885" from-port="1" to-layer="886" to-port="1"/>
		<edge from-layer="861" from-port="1" to-layer="887" to-port="0"/>
		<edge from-layer="886" from-port="2" to-layer="887" to-port="1"/>
		<edge from-layer="887" from-port="2" to-layer="888" to-port="0"/>
		<edge from-layer="888" from-port="1" to-layer="890" to-port="0"/>
		<edge from-layer="889" from-port="1" to-layer="890" to-port="1"/>
		<edge from-layer="890" from-port="2" to-layer="892" to-port="0"/>
		<edge from-layer="891" from-port="1" to-layer="892" to-port="1"/>
		<edge from-layer="892" from-port="2" to-layer="893" to-port="0"/>
		<edge from-layer="888" from-port="1" to-layer="895" to-port="0"/>
		<edge from-layer="894" from-port="1" to-layer="895" to-port="1"/>
		<edge from-layer="895" from-port="2" to-layer="897" to-port="0"/>
		<edge from-layer="896" from-port="1" to-layer="897" to-port="1"/>
		<edge from-layer="897" from-port="2" to-layer="898" to-port="0"/>
		<edge from-layer="898" from-port="1" to-layer="900" to-port="0"/>
		<edge from-layer="899" from-port="1" to-layer="900" to-port="1"/>
		<edge from-layer="900" from-port="2" to-layer="902" to-port="0"/>
		<edge from-layer="901" from-port="1" to-layer="902" to-port="1"/>
		<edge from-layer="902" from-port="2" to-layer="903" to-port="0"/>
		<edge from-layer="903" from-port="1" to-layer="905" to-port="0"/>
		<edge from-layer="904" from-port="1" to-layer="905" to-port="1"/>
		<edge from-layer="905" from-port="2" to-layer="907" to-port="0"/>
		<edge from-layer="906" from-port="1" to-layer="907" to-port="1"/>
		<edge from-layer="907" from-port="2" to-layer="908" to-port="0"/>
		<edge from-layer="893" from-port="1" to-layer="909" to-port="0"/>
		<edge from-layer="908" from-port="1" to-layer="909" to-port="1"/>
		<edge from-layer="909" from-port="2" to-layer="911" to-port="0"/>
		<edge from-layer="910" from-port="1" to-layer="911" to-port="1"/>
		<edge from-layer="911" from-port="2" to-layer="913" to-port="0"/>
		<edge from-layer="912" from-port="1" to-layer="913" to-port="1"/>
		<edge from-layer="888" from-port="1" to-layer="914" to-port="0"/>
		<edge from-layer="913" from-port="2" to-layer="914" to-port="1"/>
		<edge from-layer="914" from-port="2" to-layer="915" to-port="0"/>
		<edge from-layer="915" from-port="1" to-layer="917" to-port="0"/>
		<edge from-layer="916" from-port="1" to-layer="917" to-port="1"/>
		<edge from-layer="917" from-port="2" to-layer="919" to-port="0"/>
		<edge from-layer="918" from-port="1" to-layer="919" to-port="1"/>
		<edge from-layer="919" from-port="2" to-layer="920" to-port="0"/>
		<edge from-layer="915" from-port="1" to-layer="922" to-port="0"/>
		<edge from-layer="921" from-port="1" to-layer="922" to-port="1"/>
		<edge from-layer="922" from-port="2" to-layer="924" to-port="0"/>
		<edge from-layer="923" from-port="1" to-layer="924" to-port="1"/>
		<edge from-layer="924" from-port="2" to-layer="925" to-port="0"/>
		<edge from-layer="925" from-port="1" to-layer="927" to-port="0"/>
		<edge from-layer="926" from-port="1" to-layer="927" to-port="1"/>
		<edge from-layer="927" from-port="2" to-layer="929" to-port="0"/>
		<edge from-layer="928" from-port="1" to-layer="929" to-port="1"/>
		<edge from-layer="929" from-port="2" to-layer="930" to-port="0"/>
		<edge from-layer="930" from-port="1" to-layer="932" to-port="0"/>
		<edge from-layer="931" from-port="1" to-layer="932" to-port="1"/>
		<edge from-layer="932" from-port="2" to-layer="934" to-port="0"/>
		<edge from-layer="933" from-port="1" to-layer="934" to-port="1"/>
		<edge from-layer="934" from-port="2" to-layer="935" to-port="0"/>
		<edge from-layer="920" from-port="1" to-layer="936" to-port="0"/>
		<edge from-layer="935" from-port="1" to-layer="936" to-port="1"/>
		<edge from-layer="936" from-port="2" to-layer="938" to-port="0"/>
		<edge from-layer="937" from-port="1" to-layer="938" to-port="1"/>
		<edge from-layer="938" from-port="2" to-layer="940" to-port="0"/>
		<edge from-layer="939" from-port="1" to-layer="940" to-port="1"/>
		<edge from-layer="915" from-port="1" to-layer="941" to-port="0"/>
		<edge from-layer="940" from-port="2" to-layer="941" to-port="1"/>
		<edge from-layer="941" from-port="2" to-layer="942" to-port="0"/>
		<edge from-layer="942" from-port="1" to-layer="944" to-port="0"/>
		<edge from-layer="943" from-port="1" to-layer="944" to-port="1"/>
		<edge from-layer="944" from-port="2" to-layer="946" to-port="0"/>
		<edge from-layer="945" from-port="1" to-layer="946" to-port="1"/>
		<edge from-layer="946" from-port="2" to-layer="947" to-port="0"/>
		<edge from-layer="942" from-port="1" to-layer="949" to-port="0"/>
		<edge from-layer="948" from-port="1" to-layer="949" to-port="1"/>
		<edge from-layer="949" from-port="2" to-layer="951" to-port="0"/>
		<edge from-layer="950" from-port="1" to-layer="951" to-port="1"/>
		<edge from-layer="951" from-port="2" to-layer="952" to-port="0"/>
		<edge from-layer="952" from-port="1" to-layer="954" to-port="0"/>
		<edge from-layer="953" from-port="1" to-layer="954" to-port="1"/>
		<edge from-layer="954" from-port="2" to-layer="956" to-port="0"/>
		<edge from-layer="955" from-port="1" to-layer="956" to-port="1"/>
		<edge from-layer="956" from-port="2" to-layer="957" to-port="0"/>
		<edge from-layer="957" from-port="1" to-layer="959" to-port="0"/>
		<edge from-layer="958" from-port="1" to-layer="959" to-port="1"/>
		<edge from-layer="959" from-port="2" to-layer="961" to-port="0"/>
		<edge from-layer="960" from-port="1" to-layer="961" to-port="1"/>
		<edge from-layer="961" from-port="2" to-layer="962" to-port="0"/>
		<edge from-layer="947" from-port="1" to-layer="963" to-port="0"/>
		<edge from-layer="962" from-port="1" to-layer="963" to-port="1"/>
		<edge from-layer="963" from-port="2" to-layer="965" to-port="0"/>
		<edge from-layer="964" from-port="1" to-layer="965" to-port="1"/>
		<edge from-layer="965" from-port="2" to-layer="967" to-port="0"/>
		<edge from-layer="966" from-port="1" to-layer="967" to-port="1"/>
		<edge from-layer="942" from-port="1" to-layer="968" to-port="0"/>
		<edge from-layer="967" from-port="2" to-layer="968" to-port="1"/>
		<edge from-layer="968" from-port="2" to-layer="969" to-port="0"/>
		<edge from-layer="969" from-port="1" to-layer="971" to-port="0"/>
		<edge from-layer="970" from-port="1" to-layer="971" to-port="1"/>
		<edge from-layer="971" from-port="2" to-layer="973" to-port="0"/>
		<edge from-layer="972" from-port="1" to-layer="973" to-port="1"/>
		<edge from-layer="973" from-port="2" to-layer="974" to-port="0"/>
		<edge from-layer="969" from-port="1" to-layer="976" to-port="0"/>
		<edge from-layer="975" from-port="1" to-layer="976" to-port="1"/>
		<edge from-layer="976" from-port="2" to-layer="978" to-port="0"/>
		<edge from-layer="977" from-port="1" to-layer="978" to-port="1"/>
		<edge from-layer="978" from-port="2" to-layer="979" to-port="0"/>
		<edge from-layer="979" from-port="1" to-layer="981" to-port="0"/>
		<edge from-layer="980" from-port="1" to-layer="981" to-port="1"/>
		<edge from-layer="981" from-port="2" to-layer="983" to-port="0"/>
		<edge from-layer="982" from-port="1" to-layer="983" to-port="1"/>
		<edge from-layer="983" from-port="2" to-layer="984" to-port="0"/>
		<edge from-layer="984" from-port="1" to-layer="986" to-port="0"/>
		<edge from-layer="985" from-port="1" to-layer="986" to-port="1"/>
		<edge from-layer="986" from-port="2" to-layer="988" to-port="0"/>
		<edge from-layer="987" from-port="1" to-layer="988" to-port="1"/>
		<edge from-layer="988" from-port="2" to-layer="989" to-port="0"/>
		<edge from-layer="974" from-port="1" to-layer="990" to-port="0"/>
		<edge from-layer="989" from-port="1" to-layer="990" to-port="1"/>
		<edge from-layer="990" from-port="2" to-layer="992" to-port="0"/>
		<edge from-layer="991" from-port="1" to-layer="992" to-port="1"/>
		<edge from-layer="992" from-port="2" to-layer="994" to-port="0"/>
		<edge from-layer="993" from-port="1" to-layer="994" to-port="1"/>
		<edge from-layer="969" from-port="1" to-layer="995" to-port="0"/>
		<edge from-layer="994" from-port="2" to-layer="995" to-port="1"/>
		<edge from-layer="995" from-port="2" to-layer="996" to-port="0"/>
		<edge from-layer="996" from-port="1" to-layer="998" to-port="0"/>
		<edge from-layer="997" from-port="1" to-layer="998" to-port="1"/>
		<edge from-layer="998" from-port="2" to-layer="1000" to-port="0"/>
		<edge from-layer="999" from-port="1" to-layer="1000" to-port="1"/>
		<edge from-layer="1000" from-port="2" to-layer="1001" to-port="0"/>
		<edge from-layer="1001" from-port="1" to-layer="1003" to-port="0"/>
		<edge from-layer="1002" from-port="1" to-layer="1003" to-port="1"/>
		<edge from-layer="1003" from-port="2" to-layer="1005" to-port="0"/>
		<edge from-layer="1004" from-port="1" to-layer="1005" to-port="1"/>
		<edge from-layer="1005" from-port="2" to-layer="1006" to-port="0"/>
		<edge from-layer="996" from-port="1" to-layer="1008" to-port="0"/>
		<edge from-layer="1007" from-port="1" to-layer="1008" to-port="1"/>
		<edge from-layer="1008" from-port="2" to-layer="1010" to-port="0"/>
		<edge from-layer="1009" from-port="1" to-layer="1010" to-port="1"/>
		<edge from-layer="1010" from-port="2" to-layer="1011" to-port="0"/>
		<edge from-layer="1011" from-port="1" to-layer="1013" to-port="0"/>
		<edge from-layer="1012" from-port="1" to-layer="1013" to-port="1"/>
		<edge from-layer="1013" from-port="2" to-layer="1015" to-port="0"/>
		<edge from-layer="1014" from-port="1" to-layer="1015" to-port="1"/>
		<edge from-layer="1015" from-port="2" to-layer="1016" to-port="0"/>
		<edge from-layer="996" from-port="1" to-layer="1018" to-port="0"/>
		<edge from-layer="1017" from-port="1" to-layer="1018" to-port="1"/>
		<edge from-layer="1018" from-port="2" to-layer="1020" to-port="0"/>
		<edge from-layer="1019" from-port="1" to-layer="1020" to-port="1"/>
		<edge from-layer="1020" from-port="2" to-layer="1021" to-port="0"/>
		<edge from-layer="1021" from-port="1" to-layer="1023" to-port="0"/>
		<edge from-layer="1022" from-port="1" to-layer="1023" to-port="1"/>
		<edge from-layer="1023" from-port="2" to-layer="1025" to-port="0"/>
		<edge from-layer="1024" from-port="1" to-layer="1025" to-port="1"/>
		<edge from-layer="1025" from-port="2" to-layer="1026" to-port="0"/>
		<edge from-layer="1026" from-port="1" to-layer="1028" to-port="0"/>
		<edge from-layer="1027" from-port="1" to-layer="1028" to-port="1"/>
		<edge from-layer="1028" from-port="2" to-layer="1030" to-port="0"/>
		<edge from-layer="1029" from-port="1" to-layer="1030" to-port="1"/>
		<edge from-layer="1030" from-port="2" to-layer="1031" to-port="0"/>
		<edge from-layer="996" from-port="1" to-layer="1032" to-port="0"/>
		<edge from-layer="1006" from-port="1" to-layer="1033" to-port="0"/>
		<edge from-layer="1016" from-port="1" to-layer="1033" to-port="1"/>
		<edge from-layer="1031" from-port="1" to-layer="1033" to-port="2"/>
		<edge from-layer="1032" from-port="1" to-layer="1033" to-port="3"/>
		<edge from-layer="1033" from-port="4" to-layer="1035" to-port="0"/>
		<edge from-layer="1034" from-port="1" to-layer="1035" to-port="1"/>
		<edge from-layer="1035" from-port="2" to-layer="1037" to-port="0"/>
		<edge from-layer="1036" from-port="1" to-layer="1037" to-port="1"/>
		<edge from-layer="1037" from-port="2" to-layer="1038" to-port="0"/>
		<edge from-layer="1033" from-port="4" to-layer="1040" to-port="0"/>
		<edge from-layer="1039" from-port="1" to-layer="1040" to-port="1"/>
		<edge from-layer="1040" from-port="2" to-layer="1042" to-port="0"/>
		<edge from-layer="1041" from-port="1" to-layer="1042" to-port="1"/>
		<edge from-layer="1042" from-port="2" to-layer="1043" to-port="0"/>
		<edge from-layer="1043" from-port="1" to-layer="1045" to-port="0"/>
		<edge from-layer="1044" from-port="1" to-layer="1045" to-port="1"/>
		<edge from-layer="1045" from-port="2" to-layer="1047" to-port="0"/>
		<edge from-layer="1046" from-port="1" to-layer="1047" to-port="1"/>
		<edge from-layer="1047" from-port="2" to-layer="1048" to-port="0"/>
		<edge from-layer="1048" from-port="1" to-layer="1050" to-port="0"/>
		<edge from-layer="1049" from-port="1" to-layer="1050" to-port="1"/>
		<edge from-layer="1050" from-port="2" to-layer="1052" to-port="0"/>
		<edge from-layer="1051" from-port="1" to-layer="1052" to-port="1"/>
		<edge from-layer="1052" from-port="2" to-layer="1053" to-port="0"/>
		<edge from-layer="1038" from-port="1" to-layer="1054" to-port="0"/>
		<edge from-layer="1053" from-port="1" to-layer="1054" to-port="1"/>
		<edge from-layer="1054" from-port="2" to-layer="1056" to-port="0"/>
		<edge from-layer="1055" from-port="1" to-layer="1056" to-port="1"/>
		<edge from-layer="1056" from-port="2" to-layer="1058" to-port="0"/>
		<edge from-layer="1057" from-port="1" to-layer="1058" to-port="1"/>
		<edge from-layer="1033" from-port="4" to-layer="1059" to-port="0"/>
		<edge from-layer="1058" from-port="2" to-layer="1059" to-port="1"/>
		<edge from-layer="1059" from-port="2" to-layer="1060" to-port="0"/>
		<edge from-layer="1060" from-port="1" to-layer="1062" to-port="0"/>
		<edge from-layer="1061" from-port="1" to-layer="1062" to-port="1"/>
		<edge from-layer="1062" from-port="2" to-layer="1064" to-port="0"/>
		<edge from-layer="1063" from-port="1" to-layer="1064" to-port="1"/>
		<edge from-layer="1064" from-port="2" to-layer="1065" to-port="0"/>
		<edge from-layer="1060" from-port="1" to-layer="1067" to-port="0"/>
		<edge from-layer="1066" from-port="1" to-layer="1067" to-port="1"/>
		<edge from-layer="1067" from-port="2" to-layer="1069" to-port="0"/>
		<edge from-layer="1068" from-port="1" to-layer="1069" to-port="1"/>
		<edge from-layer="1069" from-port="2" to-layer="1070" to-port="0"/>
		<edge from-layer="1070" from-port="1" to-layer="1072" to-port="0"/>
		<edge from-layer="1071" from-port="1" to-layer="1072" to-port="1"/>
		<edge from-layer="1072" from-port="2" to-layer="1074" to-port="0"/>
		<edge from-layer="1073" from-port="1" to-layer="1074" to-port="1"/>
		<edge from-layer="1074" from-port="2" to-layer="1075" to-port="0"/>
		<edge from-layer="1075" from-port="1" to-layer="1077" to-port="0"/>
		<edge from-layer="1076" from-port="1" to-layer="1077" to-port="1"/>
		<edge from-layer="1077" from-port="2" to-layer="1079" to-port="0"/>
		<edge from-layer="1078" from-port="1" to-layer="1079" to-port="1"/>
		<edge from-layer="1079" from-port="2" to-layer="1080" to-port="0"/>
		<edge from-layer="1065" from-port="1" to-layer="1081" to-port="0"/>
		<edge from-layer="1080" from-port="1" to-layer="1081" to-port="1"/>
		<edge from-layer="1081" from-port="2" to-layer="1083" to-port="0"/>
		<edge from-layer="1082" from-port="1" to-layer="1083" to-port="1"/>
		<edge from-layer="1083" from-port="2" to-layer="1085" to-port="0"/>
		<edge from-layer="1084" from-port="1" to-layer="1085" to-port="1"/>
		<edge from-layer="1060" from-port="1" to-layer="1086" to-port="0"/>
		<edge from-layer="1085" from-port="2" to-layer="1086" to-port="1"/>
		<edge from-layer="1086" from-port="2" to-layer="1087" to-port="0"/>
		<edge from-layer="1087" from-port="1" to-layer="1089" to-port="0"/>
		<edge from-layer="1088" from-port="1" to-layer="1089" to-port="1"/>
		<edge from-layer="1089" from-port="2" to-layer="1091" to-port="0"/>
		<edge from-layer="1090" from-port="1" to-layer="1091" to-port="1"/>
		<edge from-layer="1091" from-port="2" to-layer="1092" to-port="0"/>
		<edge from-layer="1087" from-port="1" to-layer="1094" to-port="0"/>
		<edge from-layer="1093" from-port="1" to-layer="1094" to-port="1"/>
		<edge from-layer="1094" from-port="2" to-layer="1096" to-port="0"/>
		<edge from-layer="1095" from-port="1" to-layer="1096" to-port="1"/>
		<edge from-layer="1096" from-port="2" to-layer="1097" to-port="0"/>
		<edge from-layer="1097" from-port="1" to-layer="1099" to-port="0"/>
		<edge from-layer="1098" from-port="1" to-layer="1099" to-port="1"/>
		<edge from-layer="1099" from-port="2" to-layer="1101" to-port="0"/>
		<edge from-layer="1100" from-port="1" to-layer="1101" to-port="1"/>
		<edge from-layer="1101" from-port="2" to-layer="1102" to-port="0"/>
		<edge from-layer="1102" from-port="1" to-layer="1104" to-port="0"/>
		<edge from-layer="1103" from-port="1" to-layer="1104" to-port="1"/>
		<edge from-layer="1104" from-port="2" to-layer="1106" to-port="0"/>
		<edge from-layer="1105" from-port="1" to-layer="1106" to-port="1"/>
		<edge from-layer="1106" from-port="2" to-layer="1107" to-port="0"/>
		<edge from-layer="1092" from-port="1" to-layer="1108" to-port="0"/>
		<edge from-layer="1107" from-port="1" to-layer="1108" to-port="1"/>
		<edge from-layer="1108" from-port="2" to-layer="1110" to-port="0"/>
		<edge from-layer="1109" from-port="1" to-layer="1110" to-port="1"/>
		<edge from-layer="1110" from-port="2" to-layer="1112" to-port="0"/>
		<edge from-layer="1111" from-port="1" to-layer="1112" to-port="1"/>
		<edge from-layer="1087" from-port="1" to-layer="1113" to-port="0"/>
		<edge from-layer="1112" from-port="2" to-layer="1113" to-port="1"/>
		<edge from-layer="1113" from-port="2" to-layer="1114" to-port="0"/>
		<edge from-layer="1114" from-port="1" to-layer="1116" to-port="0"/>
		<edge from-layer="1115" from-port="1" to-layer="1116" to-port="1"/>
		<edge from-layer="1116" from-port="2" to-layer="1118" to-port="0"/>
		<edge from-layer="1117" from-port="1" to-layer="1118" to-port="1"/>
		<edge from-layer="1118" from-port="2" to-layer="1119" to-port="0"/>
		<edge from-layer="1114" from-port="1" to-layer="1121" to-port="0"/>
		<edge from-layer="1120" from-port="1" to-layer="1121" to-port="1"/>
		<edge from-layer="1121" from-port="2" to-layer="1123" to-port="0"/>
		<edge from-layer="1122" from-port="1" to-layer="1123" to-port="1"/>
		<edge from-layer="1123" from-port="2" to-layer="1124" to-port="0"/>
		<edge from-layer="1124" from-port="1" to-layer="1126" to-port="0"/>
		<edge from-layer="1125" from-port="1" to-layer="1126" to-port="1"/>
		<edge from-layer="1126" from-port="2" to-layer="1128" to-port="0"/>
		<edge from-layer="1127" from-port="1" to-layer="1128" to-port="1"/>
		<edge from-layer="1128" from-port="2" to-layer="1129" to-port="0"/>
		<edge from-layer="1129" from-port="1" to-layer="1131" to-port="0"/>
		<edge from-layer="1130" from-port="1" to-layer="1131" to-port="1"/>
		<edge from-layer="1131" from-port="2" to-layer="1133" to-port="0"/>
		<edge from-layer="1132" from-port="1" to-layer="1133" to-port="1"/>
		<edge from-layer="1133" from-port="2" to-layer="1134" to-port="0"/>
		<edge from-layer="1119" from-port="1" to-layer="1135" to-port="0"/>
		<edge from-layer="1134" from-port="1" to-layer="1135" to-port="1"/>
		<edge from-layer="1135" from-port="2" to-layer="1137" to-port="0"/>
		<edge from-layer="1136" from-port="1" to-layer="1137" to-port="1"/>
		<edge from-layer="1137" from-port="2" to-layer="1139" to-port="0"/>
		<edge from-layer="1138" from-port="1" to-layer="1139" to-port="1"/>
		<edge from-layer="1114" from-port="1" to-layer="1140" to-port="0"/>
		<edge from-layer="1139" from-port="2" to-layer="1140" to-port="1"/>
		<edge from-layer="1140" from-port="2" to-layer="1141" to-port="0"/>
		<edge from-layer="1141" from-port="1" to-layer="1143" to-port="0"/>
		<edge from-layer="1142" from-port="1" to-layer="1143" to-port="1"/>
		<edge from-layer="1143" from-port="2" to-layer="1145" to-port="0"/>
		<edge from-layer="1144" from-port="1" to-layer="1145" to-port="1"/>
		<edge from-layer="1145" from-port="2" to-layer="1146" to-port="0"/>
		<edge from-layer="1141" from-port="1" to-layer="1148" to-port="0"/>
		<edge from-layer="1147" from-port="1" to-layer="1148" to-port="1"/>
		<edge from-layer="1148" from-port="2" to-layer="1150" to-port="0"/>
		<edge from-layer="1149" from-port="1" to-layer="1150" to-port="1"/>
		<edge from-layer="1150" from-port="2" to-layer="1151" to-port="0"/>
		<edge from-layer="1151" from-port="1" to-layer="1153" to-port="0"/>
		<edge from-layer="1152" from-port="1" to-layer="1153" to-port="1"/>
		<edge from-layer="1153" from-port="2" to-layer="1155" to-port="0"/>
		<edge from-layer="1154" from-port="1" to-layer="1155" to-port="1"/>
		<edge from-layer="1155" from-port="2" to-layer="1156" to-port="0"/>
		<edge from-layer="1156" from-port="1" to-layer="1158" to-port="0"/>
		<edge from-layer="1157" from-port="1" to-layer="1158" to-port="1"/>
		<edge from-layer="1158" from-port="2" to-layer="1160" to-port="0"/>
		<edge from-layer="1159" from-port="1" to-layer="1160" to-port="1"/>
		<edge from-layer="1160" from-port="2" to-layer="1161" to-port="0"/>
		<edge from-layer="1146" from-port="1" to-layer="1162" to-port="0"/>
		<edge from-layer="1161" from-port="1" to-layer="1162" to-port="1"/>
		<edge from-layer="1162" from-port="2" to-layer="1164" to-port="0"/>
		<edge from-layer="1163" from-port="1" to-layer="1164" to-port="1"/>
		<edge from-layer="1164" from-port="2" to-layer="1166" to-port="0"/>
		<edge from-layer="1165" from-port="1" to-layer="1166" to-port="1"/>
		<edge from-layer="1141" from-port="1" to-layer="1167" to-port="0"/>
		<edge from-layer="1166" from-port="2" to-layer="1167" to-port="1"/>
		<edge from-layer="1167" from-port="2" to-layer="1168" to-port="0"/>
		<edge from-layer="1168" from-port="1" to-layer="1170" to-port="0"/>
		<edge from-layer="1169" from-port="1" to-layer="1170" to-port="1"/>
		<edge from-layer="1170" from-port="2" to-layer="1172" to-port="0"/>
		<edge from-layer="1171" from-port="1" to-layer="1172" to-port="1"/>
		<edge from-layer="1172" from-port="2" to-layer="1173" to-port="0"/>
		<edge from-layer="1168" from-port="1" to-layer="1175" to-port="0"/>
		<edge from-layer="1174" from-port="1" to-layer="1175" to-port="1"/>
		<edge from-layer="1175" from-port="2" to-layer="1177" to-port="0"/>
		<edge from-layer="1176" from-port="1" to-layer="1177" to-port="1"/>
		<edge from-layer="1177" from-port="2" to-layer="1178" to-port="0"/>
		<edge from-layer="1178" from-port="1" to-layer="1180" to-port="0"/>
		<edge from-layer="1179" from-port="1" to-layer="1180" to-port="1"/>
		<edge from-layer="1180" from-port="2" to-layer="1182" to-port="0"/>
		<edge from-layer="1181" from-port="1" to-layer="1182" to-port="1"/>
		<edge from-layer="1182" from-port="2" to-layer="1183" to-port="0"/>
		<edge from-layer="1183" from-port="1" to-layer="1185" to-port="0"/>
		<edge from-layer="1184" from-port="1" to-layer="1185" to-port="1"/>
		<edge from-layer="1185" from-port="2" to-layer="1187" to-port="0"/>
		<edge from-layer="1186" from-port="1" to-layer="1187" to-port="1"/>
		<edge from-layer="1187" from-port="2" to-layer="1188" to-port="0"/>
		<edge from-layer="1173" from-port="1" to-layer="1189" to-port="0"/>
		<edge from-layer="1188" from-port="1" to-layer="1189" to-port="1"/>
		<edge from-layer="1189" from-port="2" to-layer="1191" to-port="0"/>
		<edge from-layer="1190" from-port="1" to-layer="1191" to-port="1"/>
		<edge from-layer="1191" from-port="2" to-layer="1193" to-port="0"/>
		<edge from-layer="1192" from-port="1" to-layer="1193" to-port="1"/>
		<edge from-layer="1168" from-port="1" to-layer="1194" to-port="0"/>
		<edge from-layer="1193" from-port="2" to-layer="1194" to-port="1"/>
		<edge from-layer="1194" from-port="2" to-layer="1195" to-port="0"/>
		<edge from-layer="1195" from-port="1" to-layer="1197" to-port="0"/>
		<edge from-layer="1196" from-port="1" to-layer="1197" to-port="1"/>
		<edge from-layer="1197" from-port="2" to-layer="1199" to-port="0"/>
		<edge from-layer="1198" from-port="1" to-layer="1199" to-port="1"/>
		<edge from-layer="1199" from-port="2" to-layer="1200" to-port="0"/>
		<edge from-layer="1195" from-port="1" to-layer="1202" to-port="0"/>
		<edge from-layer="1201" from-port="1" to-layer="1202" to-port="1"/>
		<edge from-layer="1202" from-port="2" to-layer="1204" to-port="0"/>
		<edge from-layer="1203" from-port="1" to-layer="1204" to-port="1"/>
		<edge from-layer="1204" from-port="2" to-layer="1205" to-port="0"/>
		<edge from-layer="1205" from-port="1" to-layer="1207" to-port="0"/>
		<edge from-layer="1206" from-port="1" to-layer="1207" to-port="1"/>
		<edge from-layer="1207" from-port="2" to-layer="1209" to-port="0"/>
		<edge from-layer="1208" from-port="1" to-layer="1209" to-port="1"/>
		<edge from-layer="1209" from-port="2" to-layer="1210" to-port="0"/>
		<edge from-layer="1210" from-port="1" to-layer="1212" to-port="0"/>
		<edge from-layer="1211" from-port="1" to-layer="1212" to-port="1"/>
		<edge from-layer="1212" from-port="2" to-layer="1214" to-port="0"/>
		<edge from-layer="1213" from-port="1" to-layer="1214" to-port="1"/>
		<edge from-layer="1214" from-port="2" to-layer="1215" to-port="0"/>
		<edge from-layer="1200" from-port="1" to-layer="1216" to-port="0"/>
		<edge from-layer="1215" from-port="1" to-layer="1216" to-port="1"/>
		<edge from-layer="1216" from-port="2" to-layer="1218" to-port="0"/>
		<edge from-layer="1217" from-port="1" to-layer="1218" to-port="1"/>
		<edge from-layer="1218" from-port="2" to-layer="1220" to-port="0"/>
		<edge from-layer="1219" from-port="1" to-layer="1220" to-port="1"/>
		<edge from-layer="1195" from-port="1" to-layer="1221" to-port="0"/>
		<edge from-layer="1220" from-port="2" to-layer="1221" to-port="1"/>
		<edge from-layer="1221" from-port="2" to-layer="1222" to-port="0"/>
		<edge from-layer="1222" from-port="1" to-layer="1224" to-port="0"/>
		<edge from-layer="1223" from-port="1" to-layer="1224" to-port="1"/>
		<edge from-layer="1224" from-port="2" to-layer="1226" to-port="0"/>
		<edge from-layer="1225" from-port="1" to-layer="1226" to-port="1"/>
		<edge from-layer="1226" from-port="2" to-layer="1227" to-port="0"/>
		<edge from-layer="1222" from-port="1" to-layer="1229" to-port="0"/>
		<edge from-layer="1228" from-port="1" to-layer="1229" to-port="1"/>
		<edge from-layer="1229" from-port="2" to-layer="1231" to-port="0"/>
		<edge from-layer="1230" from-port="1" to-layer="1231" to-port="1"/>
		<edge from-layer="1231" from-port="2" to-layer="1232" to-port="0"/>
		<edge from-layer="1232" from-port="1" to-layer="1234" to-port="0"/>
		<edge from-layer="1233" from-port="1" to-layer="1234" to-port="1"/>
		<edge from-layer="1234" from-port="2" to-layer="1236" to-port="0"/>
		<edge from-layer="1235" from-port="1" to-layer="1236" to-port="1"/>
		<edge from-layer="1236" from-port="2" to-layer="1237" to-port="0"/>
		<edge from-layer="1237" from-port="1" to-layer="1239" to-port="0"/>
		<edge from-layer="1238" from-port="1" to-layer="1239" to-port="1"/>
		<edge from-layer="1239" from-port="2" to-layer="1241" to-port="0"/>
		<edge from-layer="1240" from-port="1" to-layer="1241" to-port="1"/>
		<edge from-layer="1241" from-port="2" to-layer="1242" to-port="0"/>
		<edge from-layer="1227" from-port="1" to-layer="1243" to-port="0"/>
		<edge from-layer="1242" from-port="1" to-layer="1243" to-port="1"/>
		<edge from-layer="1243" from-port="2" to-layer="1245" to-port="0"/>
		<edge from-layer="1244" from-port="1" to-layer="1245" to-port="1"/>
		<edge from-layer="1245" from-port="2" to-layer="1247" to-port="0"/>
		<edge from-layer="1246" from-port="1" to-layer="1247" to-port="1"/>
		<edge from-layer="1222" from-port="1" to-layer="1248" to-port="0"/>
		<edge from-layer="1247" from-port="2" to-layer="1248" to-port="1"/>
		<edge from-layer="1248" from-port="2" to-layer="1249" to-port="0"/>
		<edge from-layer="1249" from-port="1" to-layer="1251" to-port="0"/>
		<edge from-layer="1250" from-port="1" to-layer="1251" to-port="1"/>
		<edge from-layer="1251" from-port="2" to-layer="1253" to-port="0"/>
		<edge from-layer="1252" from-port="1" to-layer="1253" to-port="1"/>
		<edge from-layer="1253" from-port="2" to-layer="1254" to-port="0"/>
		<edge from-layer="1249" from-port="1" to-layer="1256" to-port="0"/>
		<edge from-layer="1255" from-port="1" to-layer="1256" to-port="1"/>
		<edge from-layer="1256" from-port="2" to-layer="1258" to-port="0"/>
		<edge from-layer="1257" from-port="1" to-layer="1258" to-port="1"/>
		<edge from-layer="1258" from-port="2" to-layer="1259" to-port="0"/>
		<edge from-layer="1259" from-port="1" to-layer="1261" to-port="0"/>
		<edge from-layer="1260" from-port="1" to-layer="1261" to-port="1"/>
		<edge from-layer="1261" from-port="2" to-layer="1263" to-port="0"/>
		<edge from-layer="1262" from-port="1" to-layer="1263" to-port="1"/>
		<edge from-layer="1263" from-port="2" to-layer="1264" to-port="0"/>
		<edge from-layer="1264" from-port="1" to-layer="1266" to-port="0"/>
		<edge from-layer="1265" from-port="1" to-layer="1266" to-port="1"/>
		<edge from-layer="1266" from-port="2" to-layer="1268" to-port="0"/>
		<edge from-layer="1267" from-port="1" to-layer="1268" to-port="1"/>
		<edge from-layer="1268" from-port="2" to-layer="1269" to-port="0"/>
		<edge from-layer="1254" from-port="1" to-layer="1270" to-port="0"/>
		<edge from-layer="1269" from-port="1" to-layer="1270" to-port="1"/>
		<edge from-layer="1270" from-port="2" to-layer="1272" to-port="0"/>
		<edge from-layer="1271" from-port="1" to-layer="1272" to-port="1"/>
		<edge from-layer="1272" from-port="2" to-layer="1274" to-port="0"/>
		<edge from-layer="1273" from-port="1" to-layer="1274" to-port="1"/>
		<edge from-layer="1249" from-port="1" to-layer="1275" to-port="0"/>
		<edge from-layer="1274" from-port="2" to-layer="1275" to-port="1"/>
		<edge from-layer="1275" from-port="2" to-layer="1276" to-port="0"/>
		<edge from-layer="1276" from-port="1" to-layer="1278" to-port="0"/>
		<edge from-layer="1277" from-port="1" to-layer="1278" to-port="1"/>
		<edge from-layer="1278" from-port="2" to-layer="1280" to-port="0"/>
		<edge from-layer="1279" from-port="1" to-layer="1280" to-port="1"/>
		<edge from-layer="1280" from-port="2" to-layer="1281" to-port="0"/>
		<edge from-layer="1276" from-port="1" to-layer="1283" to-port="0"/>
		<edge from-layer="1282" from-port="1" to-layer="1283" to-port="1"/>
		<edge from-layer="1283" from-port="2" to-layer="1285" to-port="0"/>
		<edge from-layer="1284" from-port="1" to-layer="1285" to-port="1"/>
		<edge from-layer="1285" from-port="2" to-layer="1286" to-port="0"/>
		<edge from-layer="1286" from-port="1" to-layer="1288" to-port="0"/>
		<edge from-layer="1287" from-port="1" to-layer="1288" to-port="1"/>
		<edge from-layer="1288" from-port="2" to-layer="1290" to-port="0"/>
		<edge from-layer="1289" from-port="1" to-layer="1290" to-port="1"/>
		<edge from-layer="1290" from-port="2" to-layer="1291" to-port="0"/>
		<edge from-layer="1291" from-port="1" to-layer="1293" to-port="0"/>
		<edge from-layer="1292" from-port="1" to-layer="1293" to-port="1"/>
		<edge from-layer="1293" from-port="2" to-layer="1295" to-port="0"/>
		<edge from-layer="1294" from-port="1" to-layer="1295" to-port="1"/>
		<edge from-layer="1295" from-port="2" to-layer="1296" to-port="0"/>
		<edge from-layer="1281" from-port="1" to-layer="1297" to-port="0"/>
		<edge from-layer="1296" from-port="1" to-layer="1297" to-port="1"/>
		<edge from-layer="1297" from-port="2" to-layer="1299" to-port="0"/>
		<edge from-layer="1298" from-port="1" to-layer="1299" to-port="1"/>
		<edge from-layer="1299" from-port="2" to-layer="1301" to-port="0"/>
		<edge from-layer="1300" from-port="1" to-layer="1301" to-port="1"/>
		<edge from-layer="1276" from-port="1" to-layer="1302" to-port="0"/>
		<edge from-layer="1301" from-port="2" to-layer="1302" to-port="1"/>
		<edge from-layer="1302" from-port="2" to-layer="1304" to-port="0"/>
		<edge from-layer="1303" from-port="1" to-layer="1304" to-port="1"/>
		<edge from-layer="1304" from-port="2" to-layer="1306" to-port="0"/>
		<edge from-layer="1305" from-port="1" to-layer="1306" to-port="1"/>
		<edge from-layer="1306" from-port="2" to-layer="1307" to-port="0"/>
		<edge from-layer="1307" from-port="1" to-layer="1308" to-port="0"/>
		<edge from-layer="1308" from-port="1" to-layer="1310" to-port="0"/>
		<edge from-layer="1309" from-port="1" to-layer="1310" to-port="1"/>
		<edge from-layer="1312" from-port="1" to-layer="1313" to-port="0"/>
		<edge from-layer="1313" from-port="1" to-layer="1316" to-port="0"/>
		<edge from-layer="1314" from-port="1" to-layer="1316" to-port="1"/>
		<edge from-layer="1315" from-port="1" to-layer="1316" to-port="2"/>
		<edge from-layer="1311" from-port="1" to-layer="1317" to-port="0"/>
		<edge from-layer="1316" from-port="3" to-layer="1317" to-port="1"/>
		<edge from-layer="1310" from-port="2" to-layer="1318" to-port="0"/>
		<edge from-layer="1317" from-port="2" to-layer="1318" to-port="1"/>
		<edge from-layer="1318" from-port="2" to-layer="1319" to-port="0"/>
		<edge from-layer="1312" from-port="1" to-layer="1319" to-port="1"/>
		<edge from-layer="1319" from-port="2" to-layer="1321" to-port="0"/>
		<edge from-layer="1320" from-port="1" to-layer="1321" to-port="1"/>
		<edge from-layer="1321" from-port="2" to-layer="1322" to-port="0"/>
		<edge from-layer="1322" from-port="1" to-layer="1324" to-port="0"/>
		<edge from-layer="1323" from-port="1" to-layer="1324" to-port="1"/>
		<edge from-layer="1324" from-port="2" to-layer="1326" to-port="0"/>
		<edge from-layer="1325" from-port="1" to-layer="1326" to-port="1"/>
		<edge from-layer="1326" from-port="2" to-layer="1327" to-port="0"/>
		<edge from-layer="1327" from-port="1" to-layer="1328" to-port="0"/>
	</edges>
	<meta_data>
		<MO_version value="2021.1.0-1237-bece22ac675-releases/2021/1"/>
		<cli_parameters>
			<data_type value="float"/>
			<disable_nhwc_to_nchw value="False"/>
			<disable_resnet_optimization value="False"/>
			<disable_weights_compression value="False"/>
			<enable_concat_optimization value="False"/>
			<extensions value="DIR"/>
			<framework value="tf"/>
			<freeze_placeholder_with_value value="{}"/>
			<generate_deprecated_IR_V7 value="False"/>
			<input_model_is_text value="False"/>
			<input_shape value="(1,299,299,3)"/>
			<keep_shape_ops value="True"/>
			<log_level value="ERROR"/>
			<mean_scale_values value="{}"/>
			<mean_values value="()"/>
			<model_name value="saved_model"/>
			<output_dir value="DIR"/>
			<placeholder_data_types value="{}"/>
			<placeholder_shapes value="[  1 299 299   3]"/>
			<progress value="False"/>
			<reverse_input_channels value="False"/>
			<saved_model_dir value="DIR"/>
			<scale_values value="()"/>
			<silent value="False"/>
			<static_shape value="False"/>
			<stream_output value="False"/>
			<unset unset_cli_parameters="batch, disable_fusing, disable_gfusing, finegrain_fusing, input, input_checkpoint, input_meta_graph, input_model, move_to_preprocess, output, saved_model_tags, scale, tensorboard_logdir, tensorflow_custom_layer_libraries, tensorflow_custom_operations_config_update, tensorflow_object_detection_api_pipeline_config, tensorflow_use_custom_operations_config, transformations_config"/>
		</cli_parameters>
	</meta_data>
</net>
